awesomepreUpsampling.pth (torch, 10881 bytes, 11 tensors)

conv1.weight f4 [4, 1, 5, 5]
-0.10269822 -0.14413898 -0.16569026 0.11672264 -0.028369302 0.06991602 -0.15577716 0.08106616
0.16155209 0.08487464 -0.0037884288 -0.036633916 0.100808494 0.16283268 0.042548116 0.06650786
-0.1932299 0.09018304 0.11392193 0.10596065 -0.15393479 -0.025549727 0.047392234 -0.078213684
0.113527894 -0.033851113 -0.10538759 -0.18518673 0.07649192 0.033530876 -0.015186679 0.09560069
0.063283324 0.090027764 -0.025342302 -0.14782903 -0.032279156 0.02749707 0.1873594 -0.09902672
0.07532043 -0.00833297 -0.09178607 -0.015667045 0.010195885 0.1295158 0.07034495 0.1696009
0.18551165 0.15130481 -0.026032083 0.118212305 0.099051945 0.044249985 0.17123494 0.069530815
-0.15382236 -0.027266655 0.16888088 0.19037421 -0.15501936 -0.16942182 0.017699756 0.115570225
0.110607184 -0.12006996 0.16207056 0.089867584 -0.04427814 0.2008303 -0.09184277 -0.14785591
0.14998968 -0.055989612 0.13365133 -0.069151185 0.11080575 -0.1265027 0.101064116 -0.08341948
0.02860731 0.14366199 0.13733235 0.0052602924 -0.17979199 0.08582639 -0.17234953 0.005650066
0.0043756813 0.040507548 -0.1596597 -0.009651345 -0.009333686 0.08619783 0.10534315 -0.19180544
-0.034511868 0.17698649 0.1388657 0.026636742
00000000: 7253 d2bd 2b99 13be b5aa 29be 480c ef3d
00000010: bd66 e8bc 2130 8f3d 0c84 1fbe 0406 a63d
00000020: e96d 253e c1d2 ad3d 4a47 78bb 720d 16bd
00000030: af74 ce3d 9cbd 263e ef46 2e3d 4635 883d
00000040: 0fde 45be e3b1 b83d e74f e93d e601 d93d
00000050: 15a1 1dbe a94d d1bc 5c1e 423d 7f2e a0bd
00000060: 5081 e83d 77a7 0abd 73d5 d7bd 97a1 3dbe
00000070: cca7 9c3d ac57 093d 8cd1 78bc 4bca c33d
00000080: b09a 813d 7a60 b83d a99a cfbc 7e60 17be
00000090: 2637 04bd 8941 e13c 24db 3f3e 85ce cabd
000000a0: 9941 9a3d 0287 08bc 56fa bbbd 2d58 80bc
000000b0: a40c 273c ca9f 043e 0311 903d dcab 2d3e
000000c0: c4f6 3d3e a6ef 1a3e 3c41 d5bc 4b19 f23d
000000d0: bfdb ca3d 793f 353d 3658 2f3e 2c66 8e3d
000000e0: 9c83 1dbe 525e dfbc 1cef 2c3e 75f1 423e
000000f0: 65bd 1ebe ea7c 2dbe 14ff 903c 15b0 ec3d
00000100: 0586 e23d 3de7 f5bd d3f5 253e 7f0c b83d
00000110: ff5c 35bd 75a6 4d3e 1018 bcbd 8a67 17be
00000120: e596 193e 5d55 65bd e5db 083e 239f 8dbd
00000130: 20ee e23d ec89 01be b4fa ce3d d5d7 aabd
00000140: e159 ea3c 211c 133e daa0 0c3e 885e ac3b
00000150: 641b 38be bfc5 af3d 657c 30be 3024 b93b
00000160: e061 8f3b 3eeb 253d d57d 23be ad20 1ebc
00000170: 51ec 18bc 7d88 b03d 26be d73d a568 44be
00000180: 515c 0dbd f23b 353e cf32 0e3e 4c35 da3c

conv1.bias f4 [4]
-0.08936778 -0.01089981 -0.08444425 0.097801276
00000000: 7406 b7bd 1e95 32bc 1bf1 acbd 094c c83d

conv2.weight f4 [4, 4, 5, 5]
-0.021061182 0.07861246 0.06571211 -0.05718576 0.03411733 -0.01177356 0.03744133 0.078272715
-0.10006052 0.065282114 -0.013431461 0.05295404 0.04643302 -0.059408378 0.08540664 -0.07991639
0.0026451284 -0.01057976 0.011596067 -0.05443098 0.097969964 -0.029998185 0.055207513 -0.09971345
0.07329795 0.048727106 -0.083542824 0.07407602 0.026668327 0.020522948 0.0811853 -0.06882836
-0.08044624 -0.09913324 -0.0549592 -0.0843789 0.03124252 0.028075607 -0.0924102 0.037674822
-0.012439653 0.052251015 -0.04776677 -0.09831315 -0.030748527 0.08425732 -0.074999124 0.07425618
0.066338204 0.05004264 -0.020423 0.09807097 0.030188672 -0.07007665 -0.06879611 0.04102326
0.027275892 0.068779916 -0.015418529 -0.08511546 0.08837804 0.04471127 0.010698526 0.055611677
-0.032376077 -0.064094186 -0.033162948 0.0984351 -0.029151173 -0.048503775 0.09282402 0.009308101
0.015147589 -0.089595795 -0.06815068 0.030475698 -0.028974844 0.0838309 0.06275255 0.06517629
0.071340404 0.035927508 -0.075333774 -0.061729196 0.012007399 0.024199115 0.041941155 0.0067195855
-0.09245255 -0.07336016 0.06722299 -0.0267045 0.056843914 0.03870876 0.061003856 0.04581391
0.06164042 -0.0093945395 -0.026009362 -0.068824634 0.03151657 -0.018306214 -0.07477637 -0.0064178286
0.085095964 0.022671446 0.010044025 0.04943934 0.06579006 -0.034215562 -0.024966402 -0.09681697
0.07380706 -0.0005149232 -0.06832237 0.038548384 -0.077492036 0.051581305 -0.08618624 0.0678297
0.08571525 -0.02214645 0.0748283 0.00045249268 -0.0043647997 -0.027719175 0.036596432 0.055719227
0.0040909443 0.03535181 0.023656817 -0.067251265 0.07558545 0.012908481 0.09170971 0.028498383
0.03270304 -0.012220819 -0.035867084 0.026855787 0.019583136 -0.022816407 0.011493437 0.064935915
-0.003945721 0.07222315 -0.085520804 -0.047325306 0.018698692 0.007901272 -0.09618647 -0.021939276
-0.002082609 -0.02388628 -0.004393754 -0.072022885 -0.003281965 0.04032477 -0.043035094 -0.046276655
0.014679792 0.07289703 -0.06606127 -0.056429718 0.050714325 -0.019893577 -0.0057949023 0.011605033
-0.04756932 0.028260263 -0.02994984 -0.07106624 0.01007711 -0.051614594 -0.03732662 -0.00062759087
0.09060438 0.005474279 -0.09901521 -0.04532545 0.03531679 0.0111377 -0.0037678666 -0.09008715
0.09457529 0.084300846 0.09465603 -0.04270602 0.07046216 0.006954315 0.057639997 -0.09560566
0.04756225 0.0307564 0.0539097 0.0419524 -0.03724067 -0.09689231 -0.0843269 0.08571671
-0.015297764 -0.08869259 -0.05085932 -0.015777607 0.005992846 0.04348416 0.09157348 0.027036255
0.05375884 -0.03303205 -0.055698607 -0.090795934 -0.07675413 0.053952947 0.0327554 0.025716798
0.018537318 0.007551979 -0.06211033 -0.048634645 -0.06951474 0.038875125 -0.05091441 0.018317617
-0.08099131 -0.027413607 0.06258748 -0.07309803 0.0014879543 0.06425646 -0.020656748 0.004791517
0.037252296 0.012447283 0.08800709 -0.024027275 -0.07309494 -0.046504095 0.013593936 0.0058164825
-0.06658451 0.016055102 0.037832677 0.05352763 0.01911088 -0.014866216 0.012136012 -0.04703398
-0.044357598 -0.011579631 -0.045561336 0.04183414 -0.091682196 -0.054768607 -0.05153702 0.043874852
00000000: 8088 acbc 92ff a03d 1294 863d 9e3b 6abd
00000010: 9dbe 0b3d e4e5 40bc 145c 193d 724d a03d
00000020: 88ec ccbd a1b2 853d a10f 5cbc 56e6 583d
00000030: 8d30 3e3d 3356 73bd ade9 ae3d 34ab a3bd
00000040: e459 2d3b bb56 2dbc 6efd 3d3c 05f3 5ebd
00000050: 7aa4 c83d c1be f5bc 4621 623d 9136 ccbd
00000060: 3c1d 963d 1396 473d 8018 abbd 2bb5 973d
00000070: 8977 da3c be1f a83c 7b44 a63d e2f5 8cbd
00000080: 00c1 a4bd 5e06 cbbd e61c 61bd d8ce acbd
00000090: 50f0 ff3c d1fe e53c 8f41 bdbd ea50 1a3d
000000a0: b0cf 4bbc 2905 563d 17a7 43bd 6858 c9bd
000000b0: 56e4 fbbc 1a8f ac3d 2499 99bd a013 983d
000000c0: 53dc 873d 83f9 4c3d 234e a7bc 6fd9 c83d
000000d0: 3c4e f73c 5984 8fbd fae4 8cbd 0208 283d
000000e0: b171 df3c 7cdc 8c3d ff9d 7cbc 0451 aebd
000000f0: 8cff b43d 2a23 373d df48 2f3c 12c9 633d
00000100: c79c 04bd d043 83bd dfd5 07bd 5798 c93d
00000110: 71ce eebc e5ab 46bd 851a be3d 0181 183c
00000120: 982d 783c 007e b7bd 9592 8bbd 2ca8 f93c
00000130: a75c edbc 89af ab3d 6984 803d 267b 853d
00000140: eb1a 923d b928 133d 9848 9abd c1d7 7cbd
00000150: afba 443c 393d c63c 7dca 2b3d f82f dc3b
00000160: c357 bdbd da3d 96bd 35ac 893d 65c3 dabc
00000170: 2ad5 683d 148d 1e3d 2edf 793d 5ea7 3b3d
00000180: aa7a 7c3d 8eeb 19bc 9611 d5bc eef3 8cbd
00000190: 8517 013d eaf6 95bc 5a24 99bd a64c d2bb
000001a0: cb46 ae3d 78b9 b93c b28f 243c e880 4a3d
000001b0: f0bc 863d 9e25 0cbd 5786 ccbc fa47 c6bd
000001c0: 2828 973d e9fb 06ba 99ec 8bbd e9e4 1d3d
000001d0: 25b4 9ebd eb46 533d 6982 b0bd 4cea 8a3d
000001e0: 7a8b af3d 796c b5bc 943f 993d 8a3c ed39
000001f0: 9806 8fbb 5313 e3bc 24e6 153d d839 643d
00000200: 540d 863b 0fcd 103d f1cb c13c 08bb 89bd
00000210: 8bcc 9a3d 187e 533c 4dd2 bb3d 7175 e93c
00000220: 9ff3 053d d439 48bc 5de9 12bd ab00 dc3c
00000230: d06c a03c 79e9 babc f84e 3c3c 1ffd 843d
00000240: 1b4b 81bb bbe9 933d 8825 afbd 2ed8 41bd
00000250: 002e 993c 5674 013c 69fd c4bd ffb9 b3bc
00000260: 627c 08bb 29ad c3bc 7bf9 8fbb bc80 93bd
00000270: 3c16 57bb 962b 253d 9145 30bd 978c 3dbd
00000280: 8383 703c 0a4b 953d 224b 87bd d922 67bd
00000290: d3b9 4f3d dbf7 a2bc 2ae3 bdbb 0923 3e3c
000002a0: 0cd8 42bd 1182 e73c 5e59 f5bc 2d8b 91bd
000002b0: 761a 253c d369 53bd cce3 18bd e984 24ba
000002c0: ca8e b93d 9561 b33b 7dc8 cabd 2ea7 39bd
000002d0: 57a8 103d e67a 363c 50ee 76bb 9d7f b8bd
000002e0: b1b0 c13d eca5 ac3d 05db c13d 82ec 2ebd
000002f0: 774e 903d 06e1 e33b eb17 6c3d e6cc c3bd
00000300: a2d0 423d d9f4 fb3c 6bd0 5c3d 48d6 2b3d
00000310: ac89 18bd 7a6f c6bd 95b3 acbd 3e8c af3d
00000320: 79a3 7abc 76a4 b5bd dd51 50bd 0a40 81bc
00000330: a35f c43b 721c 323d e08a bb3d 237b dd3c
00000340: 3b32 5c3d 9d4c 07bd 3924 64bd 38f3 b9bd
00000350: 4531 9dbd c4fd 5c3d 872a 063d 09ac d23c
00000360: 93db 973c 9776 f73b 6767 7ebd 1f35 47bd
00000370: be5d 8ebd 863b 1f3d a18b 50bd d40e 963c
00000380: c6de a5bd 8092 e0bc dd2d 803d 6cb4 95bd
00000390: 7607 c33a e498 833d 5738 a9bc 2802 9d3b
000003a0: dd95 183d b0ef 4b3c 103d b43d d9d4 c4bc
000003b0: cdb2 95bd 147b 3ebd 1ab9 5e3c 3198 be3b
000003c0: 765d 88bd fd85 833c 70f6 1a3d ca3f 5b3d
000003d0: 6c8e 9c3c 6e91 73bc 20d6 463c b4a6 40bd
000003e0: 50b0 35bd 7eb8 3dbc 869e 3abd 465a 2b3d
000003f0: e0c3 bbbd 0c55 60bd 7b18 53bd 1eb6 333d

conv2.bias f4 [4]
0.026716828 0.028526152 0.009736876 -0.030569002
00000000: 40dd da3c adaf e93c 6b87 1f3c d86b fabc

conv3.weight f4 [4, 4, 5, 5]
-0.08791181 -0.025466904 -0.018804632 -0.031840593 -0.04498188 -0.083455 0.029104875 0.057560053
0.074919306 0.07999605 0.08216293 -0.03370371 -0.095265545 -0.03896254 0.04909068 0.010985084
0.026176738 0.080997065 0.070842735 0.068470776 -0.08532156 -0.016417345 -0.097089276 -0.07364117
0.012360892 -0.091332234 -0.033654954 0.09646617 0.004714084 0.011945899 0.09322077 0.035189394
-0.09449064 0.0860538 0.011262334 0.030962897 -0.09119006 0.072750546 0.034369458 -0.08226799
0.09089454 -0.039208077 -0.010202041 0.018974483 -0.025750585 0.011492804 0.02063379 -0.0046283416
-0.007083466 -0.04445355 0.06552772 -0.0006427641 0.046238665 0.05190518 -0.0887374 0.085630424
-0.0039210534 0.028288485 0.0023842358 0.034165367 0.017033966 -0.014847106 0.090821266 0.013385013
-0.022360701 0.01522524 0.012155117 -0.031956382 0.07024195 0.015643345 0.08337342 -0.070614204
-0.015637636 0.033460744 -0.006886535 0.0816419 -0.08255466 0.011593585 0.01617853 -0.011477424
0.026659843 0.01147007 0.08825748 -0.01249043 0.07077228 0.016631868 0.10043198 0.090782575
0.02819341 0.01769556 -0.042126764 -0.04688671 -0.02644342 0.076758735 0.005284257 -0.038101375
0.03462319 0.04604561 0.007376562 0.094548084 0.004160251 0.044050023 -0.061250262 0.036408886
-0.0007454488 -0.02742478 0.04659132 0.06503006 -0.0020917743 0.09219275 -0.061670046 -0.02339505
-0.05398758 0.025126547 -0.050033916 -0.037669577 -0.048123732 0.09452836 -0.09415863 -0.018412387
-0.05866162 0.05121416 -0.077588424 -0.040935233 0.034029417 -0.06724631 -0.00031102903 0.09023648
-0.012728291 -0.011110312 -0.029641269 0.07999781 0.059834152 -0.00056804996 0.056958392 0.07222676
-0.07088279 -0.01733179 -0.08569853 -0.089897804 -0.061626624 0.01598641 -0.029958712 0.01889573
2.0740456e-05 0.07415205 -0.030735388 0.07375446 -0.02517826 0.08972933 -0.08935423 -0.04797946
0.024096506 0.023562463 0.03631375 0.05157833 -0.033848252 0.052573826 0.005750429 -0.010823519
0.09686101 -0.0039493693 -0.088215284 -0.026604787 0.042180855 -0.045464035 0.023561245 -0.010672412
-0.029643657 -0.08741306 0.09469373 0.04661831 0.090797044 0.098087475 -0.03237592 -0.058600917
0.033376902 0.021623135 0.091955796 0.04515944 -0.032613147 -0.08325827 0.091913566 -0.0518719
0.00484881 -0.06768868 0.0918423 0.03307088 -0.033398025 0.044031598 0.015512151 -0.08543245
-0.008886974 -0.08674665 0.0043588057 -0.07303483 -0.003155283 0.06637523 0.01425443 0.002815189
0.09156649 -0.030466208 -0.051921178 0.06608536 0.012767891 0.023816895 -0.0015038848 0.084696114
0.07026391 0.075480595 -0.050206065 0.081283584 0.01277148 0.006152901 -0.05156353 -0.017010763
0.012422615 -0.03778351 -0.08259581 -0.09195211 -0.029337088 0.005317503 0.06442356 -0.0606738
0.098036095 0.0029550372 -0.017246675 -0.008054868 0.08620643 -0.06887726 0.022860263 0.005215607
-0.04410736 -0.05545426 0.059188224 -0.06516321 0.07978649 0.043122936 -0.10081494 -0.006796287
0.09246071 -0.024548654 0.04718764 0.0037982396 0.035317417 -0.04311521 -0.07258328 0.0127935875
0.007328905 0.079310045 0.032747824 0.0025984605 -0.017804617 0.04302894 -0.07515198 0.074413866
00000000: 1b0b b4bd f89f d0bc 2c0c 9abc 486b 02bd
00000010: eb3e 38bd 74ea aabd 596d ee3c 17c4 6b3d
00000020: 4b6f 993d f8d4 a33d 0a45 a83d e70c 0abd
00000030: 951a c3bd 2f97 1fbd 4f13 493d c8fa 333c
00000040: 9970 d63c cae1 a53d ff15 913d 683a 8c3d
00000050: 12bd aebd ab7d 86bc bed6 c6bd 2fd1 96bd
00000060: 5785 4a3c 650c bbbd c7d9 09bd 0e90 c53d
00000070: 9a78 9a3b bbb8 433c 88ea be3d c122 103d
00000080: 4f84 c1bd fa3c b03d a785 383c e7a5 fd3c
00000090: dbc1 babd 3dfe 943d fdc6 0c3d 1f7c a8bd
000000a0: eb26 ba3d a698 20bd 7626 27bc 6070 9b3c
000000b0: e4f2 d2bc 504c 3c3c 3208 a93c 58a9 97bb
000000c0: 6b1c e8bb ed14 36bd 6633 863d 2b7f 28ba
000000d0: c164 3d3d 879a 543d f4bb b5bd 015f af3d
000000e0: 2e7c 80bb 41bd e73c d740 1c3b fcf0 0b3d
000000f0: d18a 8b3c 4741 73bc 8000 ba3d d04c 5b3c
00000100: ca2d b7bc 4973 793c 4126 473c b2e4 02bd
00000110: 03db 8f3d 7926 803c afbf aa3d 2e9e 90bd
00000120: 801a 80bc 220e 093d 71a8 e1bb de33 a73d
00000130: 6b12 a9bd 05f3 3d3c d688 843c ce0b 3cbc
00000140: be65 da3c f6ec 3b3c 56c0 b43d a9a4 4cbc
00000150: 0ff1 903d 8e3f 883c 48af cd3d 37ec b93d
00000160: def5 e63c 47f6 903c 1d8d 2cbd 470c 40bd
00000170: df9f d8bc af33 9d3d 8f27 ad3b 3010 1cbd
00000180: 0cd1 0d3d 529a 3c3d 16b7 f13b 6da2 c13d
00000190: b752 883b cc6d 343d 8ee1 7abd 7c21 153d
000001a0: 396a 43ba efa9 e0bc 8ad6 3e3d 7b2e 853d
000001b0: 2616 09bb 8dcf bc3d bb99 7cbd faa6 bfbc
000001c0: 1522 5dbd 30d6 cd3c 5df0 4cbd 6a4b 1abd
000001d0: 641d 45bd 1698 c13d 3dd6 c0bd 93d5 96bc
000001e0: 2b47 70bd f0c5 513d aee6 9ebd b4ab 27bd
000001f0: 6e62 0b3d 6fb8 89bd 9c11 a3b9 e7cd b83d
00000200: 528a 50bc 0708 36bc 3fd2 f2bc e4d5 a33d
00000210: a814 753d 30e9 14ba 344d 693d a0eb 933d
00000220: ff2a 91bd 66fb 8dbc b682 afbd 571c b8bd
00000230: 336c 7cbd eff5 823c f96b f5bc 38cb 9a3c
00000240: cafb ad37 08dd 973d c8c8 fbbc 940c 973d
00000250: a342 cebc 03c4 b73d 5aff b6bd 1c86 44bd
00000260: 0966 c53c 1106 c13c babd 143d cd43 533d
00000270: 77a4 0abd a757 573d 186e bc3b 2155 31bc
00000280: 115f c63d b669 81bb 37aa b4bd 48f2 d9bc
00000290: d5c5 2c3d 7f38 3abd 8303 c13c 57db 2ebc
000002a0: 41d7 f2bc 9e05 b3bd c9ee c13d d7f2 3e3d
000002b0: cdf3 b93d 16e2 c83d 9d9c 04bd 8407 70bd
000002c0: 38b6 083d 0023 b13c 5253 bc3d 1bf9 383d
000002d0: 5d95 05bd 5083 aabd 2e3d bc3d a177 54bd
000002e0: c4e2 9e3b 5da0 8abd d117 bc3d 5575 073d
000002f0: 5ecc 08bd 7a5a 343d ad26 7e3c 35f7 aebd
00000300: ac9a 11bc 3aa8 b1bd 50d4 8e3b 4993 95bd
00000310: ddc8 4ebb bdef 873d 6a8b 693c 097f 383b
00000320: 3687 bb3d 4594 f9bc 4dab 54bd c357 873d
00000330: 6b30 513c a61b c33c 001e c5ba 2875 ad3d
00000340: 86e6 8f3d 9295 9a3d e0a4 4dbd 0278 a63d
00000350: 783f 513c 469e c93b 4834 53bd 285a 8bbc
00000360: 3988 4b3c e2c2 1abd fe27 a9bd 6351 bcbd
00000370: 5554 f0bc 733e ae3b 80f0 833d 1785 78bd
00000380: 26c7 c83d 4ca9 413b e648 8dbc 91f8 03bc
00000390: ff8c b03d 850f 8dbd 7245 bb3c afe7 aa3b
000003a0: eba9 34bd 0224 63bd 5a6f 723d 4a74 85bd
000003b0: 1967 a33d ada1 303d 1078 cebd 63b3 debb
000003c0: 0a5c bd3d 421a c9bc d447 413d e3eb 783b
000003d0: ffa8 103d 9399 30bd 8ba6 94bd 329c 513c
000003e0: 5027 f03b 4e6d a23d 9522 063d ef4a 2a3b
000003f0: fdda 91bc 1d3f 303d 48e9 99bd 4c66 983d

conv3.bias f4 [4]
-0.086120605 0.035246298 0.020380164 -0.09706873
00000000: 0060 b0bd 6c5e 103d 4df4 a63c f8cb c6bd

conv4.weight f4 [4, 4, 5, 5]
0.0037789566 0.08768646 -0.024638632 0.09087561 -0.032203734 -0.016503887 0.08000497 0.021760644
-0.090549186 -0.07284497 0.008683052 0.074749194 -0.014798297 0.08062765 0.0032915121 0.088061854
0.036792383 -0.003063533 -0.05784108 0.0429911 -0.05741844 0.041316886 0.008756901 0.021377008
-0.062419757 -0.04700958 -0.057735667 -0.046962727 -0.07088021 0.04775317 -0.056868594 -0.04216004
-0.0406896 0.0834314 0.06167309 0.046561234 -0.08271112 -0.08764648 -0.10171016 0.060104456
-0.07980718 -0.085315816 -0.07987255 -0.08817258 0.091432154 -0.0012262983 -0.08708571 0.0926587
0.061851304 0.062144455 -0.04452081 -0.0233544 0.069669515 -0.009344955 0.025410848 0.04849045
0.0017272615 -0.030631477 -0.07210196 -0.050806362 -0.058103085 0.09381925 -0.047018908 -0.049241398
0.0873775 -0.07658601 0.023101034 0.037788685 -0.029533958 -0.06194688 0.04327505 0.09621
0.04973347 -0.03494864 -0.002182759 0.02581623 -0.0049500344 -0.010502382 0.016650021 -0.08587927
0.043246333 0.021550817 -0.037191562 -0.01393463 -0.07513936 0.01614309 -0.02126032 -0.037600774
0.017623356 -0.09964031 0.034666743 0.05589028 -0.09400679 -0.071242146 0.07885625 0.09679154
-0.017752403 -0.088003054 0.06824764 0.01880167 0.020249419 0.04995936 -0.04194957 -0.0033501512
-0.013711458 0.046968248 0.0009639954 -0.035629243 0.010446127 0.054274317 0.084404476 0.069429584
0.03598683 -0.05484501 0.05237669 0.1008842 -0.055113807 0.03603866 0.08072881 -0.041515563
0.0058953455 -0.095076285 0.076456286 -0.036638666 0.09306928 -0.088309556 -0.092830524 -0.008680482
0.0009480566 -0.088247515 -0.048035976 0.04959564 0.03652051 0.05094899 0.010022233 -0.029650148
0.08172718 -0.037352215 -0.05309841 0.01229262 -0.090251826 -0.046217304 0.031187905 -0.09265123
0.05972471 0.09519798 0.06945944 -0.047886446 -0.0058269817 0.032832198 -0.08899912 0.046908278
-0.094748676 0.0711714 -0.014417773 0.09342144 0.05538555 -0.07268701 0.056426324 0.025552506
-0.07455224 -0.07119467 0.037982073 -0.011510923 0.03733807 -0.02198468 0.08311548 -0.011240694
0.09106716 -0.09249712 0.015108371 0.08000851 0.05882003 -0.02244723 -0.095621265 -0.0567458
-0.044599727 0.068070956 0.093215205 -0.087290905 -0.09187137 -0.04795892 0.061102867 -0.09022111
-0.063464686 -0.018278519 0.019581866 -0.016152905 -0.059493028 0.09775696 -0.052210104 -0.036708858
0.09751851 0.08598156 -0.07745506 0.018502884 -0.054916237 0.095550574 0.0010294104 -0.0979269
0.015729966 -0.05095475 -0.052403264 -0.05329011 -0.03424184 0.033825245 -0.1013063 0.046865463
-0.07306666 0.008011427 -0.031288635 -0.072330676 -0.056232657 0.01946779 0.021327544 0.07905099
-0.08611916 -0.025709447 -0.07208403 -0.024649642 -0.0062178248 -0.018253466 0.06728535 0.007038761
0.031251438 -0.06173105 0.062589824 0.011579812 0.049142014 -0.07329169 -0.03871437 -0.025285734
0.04734525 -0.09679381 -0.00400823 0.05532922 -0.035410833 0.029229704 -0.098442204 0.064707145
0.062016685 0.009136557 0.021927984 0.047134586 -0.03613166 0.06597098 -0.091884136 0.037656717
0.02411932 0.08544384 0.06448651 -0.0681271 -0.031670704 -0.034391534 0.08329123 0.06433184
00000000: 5fa8 773b f594 b33d f5d6 c9bc fe1c ba3d
00000010: 10e8 03bd 2933 87bc a5d9 a33d 6143 b23c
00000020: da71 b9bd be2f 95bd 5c43 0e3c 1b16 993d
00000030: 8e74 72bc 1c20 a53d 69b6 573b c659 b43d
00000040: 9cb3 163d 8ec5 48bb c5ea 6cbd 7017 303d
00000050: 992f 6bbd e53b 293d 1b79 0f3c d61e af3c
00000060: dcab 7fbd 1e8d 40bd 3c7c 6cbd fd5b 40bd
00000070: a529 91bd d498 433d 0bef 68bd 02b0 2cbd
00000080: 23aa 26bd 15de aa3d ec9c 7c3d feb6 3e3d
00000090: 7364 a9bd ff7f b3bd 6b4d d0bd 1730 763d
000000a0: f271 a3bd 0fba aebd 3894 a3bd d393 b4bd
000000b0: c840 bb3d bebb a0ba fe59 b2bd d8c3 bd3d
000000c0: cb57 7d3d 2f8b 7e3d 745b 36bd ba51 bfbc
000000d0: e4ae 8e3d 951b 19bc 692a d03c ec9d 463d
000000e0: 4765 e23a ddee fabc 31aa 93bd 551a 50bd
000000f0: 80fd 6dbd 4f24 c03d e696 40bd 59b1 49bd
00000100: faf2 b23d 20d9 9cbd 613e bd3c 4fc8 1a3d
00000110: 33f1 f1bc 03bc 7dbd 2e41 313d c009 c53d
00000120: 53b5 4b3d 4e26 0fbd 9f0c 0fbb 8f7c d33c
00000130: e633 a2bb 2f12 2cbc a065 883c 79e1 afbd
00000140: 1123 313d 578b b03c 2e56 18bd 134e 64bc
00000150: aae2 99bd 833e 843c 1f2a aebc 4503 1abd
00000160: db5e 903c 3810 ccbd b7fe 0d3d 35ed 643d
00000170: a286 c0bd 67e7 91bd 637f a13d a53a c63d
00000180: 7d6d 91bc f23a b4bd 6bc5 8b3d f605 9a3c
00000190: 1ce2 a53c 30a2 4c3d 50d3 2bbd 368e 5bbb
000001a0: 06a6 60bc c761 403d a3b4 7c3a f8ef 11bd
000001b0: 3b26 2b3c bf4e 5e3d 41dc ac3d 1931 8e3d
000001c0: ed66 133d 29a5 60bd f188 563d 609c ce3d
000001d0: 04bf 61bd 469d 133d 2555 a53d 390c 2abd
000001e0: be2d c13b 5bb7 c2bd 1d95 9c3d 6d12 16bd
000001f0: 1b9b be3d a4db b4bd ee1d bebd 9538 0ebc
00000200: 0087 783a 1dbb b4bd 5fc1 44bd cc24 4b3d
00000210: 8896 153d e3af 503d 4b34 243c dee4 f2bc
00000220: 9460 a73d a3fe 18bd b87d 59bd fc66 493c
00000230: f3d5 b8bd 5b4e 3dbd c77d ff3c eebf bdbd
00000240: e6a1 743d 29f7 c23d c040 8e3d 9424 44bd
00000250: 44f0 bebb 0e7b 063d 2c45 b6bd e522 403d
00000260: 980b c2bd 50c2 913d 8638 6cbc bd53 bf3d
00000270: f5db 623d eddc 94bd 4a1f 673d 7d53 d13c
00000280: d8ae 98bd 83ce 91bd 1793 1b3d 4f98 3cbc
00000290: ceef 183d 3719 b4bc 7338 aa3d e32a 38bc
000002a0: 6b81 ba3d 216f bdbd 1a89 773c 80db a33d
000002b0: 46ed 703d 41e3 b7bc 15d5 c3bd 496e 68bd
000002c0: 34ae 36bd c968 8b3d 9de7 be3d 93c5 b2bd
000002d0: 0f27 bcbd 9370 44bd 0047 7a3d d8c5 b8bd
000002e0: c6f9 81bd d5bc 95bc 266a a03c 1953 84bc
000002f0: f6ae 73bd cd34 c83d 43da 55bd 075c 16bd
00000300: c9b7 c73d 1a17 b03d c2a0 9ebd 5c93 973c
00000310: d9ef 60bd 05b0 c33d 48ed 863a e68d c8bd
00000320: 21dc 803c eeb5 50bd cea4 56bd bb46 5abd
00000330: 2c41 0cbd 578c 0a3d ad79 cfbd 00f6 3f3d
00000340: f9a3 95bd 5c42 033c 8328 00bd 1b22 94bd
00000350: 3754 66bd ea7a 9f3c 1ab7 ae3c 7ce5 a13d
00000360: 3e5f b0bd 9e9c d2bc cba0 93bd 0cee c9bc
00000370: e5be cbbb 4b88 95bc e7cc 893d 68a5 e63b
00000380: 8201 003d b3d9 7cbd 182f 803d 40b9 3d3c
00000390: 2349 493d f419 96bd f692 1ebd 0724 cfbc
000003a0: 18ed 413d d53b c6bd 7857 83bb e4a0 623d
000003b0: f30a 11bd 2273 ef3c 119c c9bd 2e85 843d
000003c0: 3505 7e3d 7fb1 153c 51a2 b33c 3210 413d
000003d0: cbfe 13bd cb1b 873d c02d bcbd ee3d 1a3d
000003e0: e195 c53c 2efd ae3d 8111 843d 3986 8bbd
000003f0: 24b9 01bd 23de 0cbd 9894 aa3d 69c0 833d

conv4.bias f4 [4]
0.09089337 0.061484985 0.022559362 -0.07924521
00000000: 4e26 ba3d aed7 7b3d 69ce b83c 504b a2bd

conv5.weight f4 [4, 4, 5, 5]
-0.09541736 -0.0029897369 0.0068463115 0.045825087 0.072635524 -0.018661376 -0.09403326 -0.017341416
0.056234047 0.050981518 -0.004003157 -0.04155207 0.04314451 0.020890051 -0.064134456 0.036869932
0.010034475 0.07992969 0.07067689 0.06292885 0.009168857 0.0468442 0.017913077 0.09437341
-0.09841709 -0.052683834 0.09388492 -0.08210162 0.001646853 0.03670627 -0.046827707 -0.04318077
0.03785134 -0.07257531 0.0802419 0.042357612 -0.039558053 0.09692175 0.011743055 0.07671369
-0.096002154 -0.017384997 0.017108086 -0.07129467 -0.09097531 -0.05779481 0.019876847 0.09711399
-0.041409504 -0.058000065 -0.082737476 0.059829514 -0.033442292 0.09327762 0.015388601 -0.085918486
-0.023574889 0.090911575 0.056112595 0.095708475 -0.04907394 0.050263584 -0.048596535 0.036487106
-0.004230842 -0.028482335 0.046444383 0.0659875 -0.038684294 0.030169914 -0.056800652 0.06807511
0.084662564 -0.049297992 0.044631805 0.0012836009 -0.061876513 0.05402822 -0.042797446 0.084931605
0.014704943 -0.011151791 -0.014073074 0.048040755 -0.09984765 -0.004806675 -0.05212262 0.008426353
0.055292316 -0.0045274943 0.0049330145 -0.03851341 0.08620884 -0.08992358 -0.069646075 -0.046013094
0.095450394 -0.06600785 -0.044534113 -0.078650795 -0.029873148 -0.06606208 -0.032846853 -0.09303881
0.01263193 0.09198593 -0.08054111 -0.040166285 0.03645254 -0.03301029 0.042932384 0.07848955
-0.013499513 -0.033177152 -0.029123329 0.0074443594 -0.08825624 -0.030591823 0.08162249 0.05805347
0.008214392 0.015827417 0.08647335 0.016633794 -0.092314795 -0.09262991 0.07394529 -0.014669858
-0.032984003 -0.0461581 -0.00013235956 -0.07852669 -0.04086497 -0.08568262 0.008886792 0.08365429
-0.004898429 0.0410027 -0.030150615 0.093029924 -0.031031966 -0.03995284 -0.024585687 0.020147167
0.0010163337 0.078674935 -0.012701675 -0.060728718 -0.05677476 0.095222704 -0.09158858 -0.050152745
-0.054064132 0.0022051558 -0.064880714 0.030148141 -0.09819429 0.04937417 0.03378608 0.029862948
-0.029276192 -0.0064996704 -0.09476779 0.0302862 0.036806293 -0.016151749 0.006902203 -0.07680104
0.0020942092 -0.087070264 0.01587049 0.010429248 -0.039735842 -0.021074772 -0.048773684 0.022376552
0.052153163 0.0064757243 -0.05690719 -0.07088341 -0.077449426 -0.043116987 0.07680047 0.014545634
-0.010424033 0.061461292 -0.06273155 0.029361315 0.038737588 0.034097992 -0.058835354 -0.06603594
-0.033817448 -0.07316668 0.06579507 -0.030247368 0.056247003 0.039029352 0.03385345 -0.06622557
0.087735854 -0.08708376 -0.06758787 -0.04130855 -0.059676457 -0.027105436 -0.07653272 -0.06661996
0.06788864 -0.08665196 -0.07952318 0.029927872 0.015196726 0.0038366318 -0.013032116 -0.09412475
-0.07932557 -0.085288875 -0.02325274 0.019732915 -0.035819814 0.04937119 0.046551026 -0.07925431
-0.07696924 -0.014617205 0.008876622 -0.006513953 -0.049126565 0.07062023 0.051217087 -0.09243616
-0.0045482367 0.0071974397 -0.061832454 -0.07063502 0.08815505 -0.074476495 -0.009597614 -0.08792528
0.039063416 0.012369275 -0.092282034 0.036859162 -0.07750211 0.041551538 0.07085679 0.026249625
-0.0479802 -0.03812269 -0.099505916 -0.07104826 -0.028460726 0.057111003 -0.0407035 0.07418027
00000000: 2d6a c3bd 76ef 43bb 0657 e03b 16b3 3b3d
00000010: efc1 943d bedf 98bc 8394 c0bd 960f 8ebc
00000020: ac55 663d ffd1 503d ea2c 83bb 8132 2abd
00000030: 4cb8 303d 9d21 ab3c ed58 83bd ed04 173d
00000040: a367 243c 2db2 a33d 0cbf 903d d7e0 803d
00000050: f938 163c b4df 3f3d 72be 923c d946 c13d
00000060: e68e c9bd 01cb 57bd bd46 c03d e524 a8bd
00000070: 38db d73a 5059 163d 69ce 3fbd 52de 30bd
00000080: 020a 1b3d 5da2 94bd de55 a43d 2d7f 2d3d
00000090: a007 22bd e97e c63d f165 403c 111c 9d3d
000000a0: c79c c4bd fb6a 8ebc 4226 8c3c f102 92bd
000000b0: 4351 babd 40ba 6cbd c5d4 a23c b3e3 c63d
000000c0: 039d 29bd 7a91 6dbd 4472 a9bd cb0f 753d
000000d0: c9fa 08bd 5608 bf3d 7920 7c3c 08f6 afbd
000000e0: 2020 c1bc d92f ba3d 52d6 653d ce02 c43d
000000f0: c101 49bd 30e1 4d3d 290d 47bd 8173 153d
00000100: e0a2 8abb c953 e9bc 773c 3e3d 7424 873d
00000110: 6c73 1ebd e526 f73c cda7 68bd f76a 8b3d
00000120: 9163 ad3d b1ec 49bd d7cf 363d 803e a83a
00000130: 3a72 7dbd b24c 5d3d 604c 2fbd 9ff0 ad3d
00000140: 00ed 703c 00b6 36bc c092 66bc 62c6 443d
00000150: ed7c ccbd 5081 9dbb 877e 55bd b00e 0a3c
00000160: 327a 623d 605b 94bb 20a5 a13b 3dc0 1dbd
00000170: 438e b03d db29 b8bd 9aa2 8ebd 3a78 3cbd
00000180: 7f7b c33d 202f 87bd 6769 36bd ab13 a1bd
00000190: 88b8 f4bc 8e4b 87bd 6c8a 06bd 228b bebd
000001a0: 28f6 4e3c 1f63 bc3d bdf2 a4bd 6785 24bd
000001b0: 424f 153d cc35 07bd ded9 2f3d 21bf a03d
000001c0: 102d 5dbc c4e4 07bd 0c94 eebc d0ef f33b
000001d0: b0bf b4bd b49b fabc b129 a73d 7ac9 6d3d
000001e0: a895 063c 80a8 813c f118 b13d 9843 883c
000001f0: 8a0f bdbd c0b4 bdbd a170 973d d859 70bc
00000200: 3c1a 07bd 4710 3dbd 00ca 0ab9 9ad2 a0bd
00000210: 0762 27bd 5f7a afbd e899 113c f152 ab3d
00000220: 0083 a0bb 72f2 273d 6cfe f6bc 7986 be3d
00000230: c036 febc 97a5 23bd ec67 c9bc ac0b a53c
00000240: 8036 853a 5320 a13d b01a 50bc adbe 78bd
00000250: a78c 68bd 1f04 c33d cb92 bbbd f76c 4dbd
00000260: 5a72 5dbd 6084 103b 2ee0 84bd 3cf9 f63c
00000270: 171a c9bd 923c 4a3d 4663 0a3d 24a3 f43c
00000280: a0d4 efbc 30fb d4bb 9d15 c2bd c41a f83c
00000290: 32c2 163d ac50 84bc e02b e23b dd49 9dbd
000002a0: 003f 093b e551 b2bd d402 823c 70df 2a3c
000002b0: 0dc2 22bd 00a5 acbc eac6 47bd 084f b73c
000002c0: 8e9e 553d 5032 d43b 8317 69bd 522b 91bd
000002d0: ce9d 9ebd 709b 30bd 9149 9d3d d050 6e3c
000002e0: 90c9 2abc d6be 7b3d 6679 80bd 2487 f03c
000002f0: 4eab 1e3d 56aa 0b3d 57fd 70bd da3d 87bd
00000300: 2a84 0abd 6ad8 95bd 91bf 863d 54c9 f7bc
00000310: 4263 663d 3edd 1f3d eaa9 0a3d 46a1 87bd
00000320: dbae b33d f858 b2bd 826b 8abd 2733 29bd
00000330: 4d6f 74bd 380c debc 30bd 9cbd 0c70 88bd
00000340: 3309 8b3d 9576 b1bd 0ddd a2bd 4c2b f53c
00000350: b0fb 783c 0070 7b3b a884 55bc 7ac4 c0bd
00000360: 7275 a2bd efab aebd 887c bebc eca6 a13c
00000370: ccb7 12bd 7239 4a3d 4aac 3e3d 1550 a2bd
00000380: 0da2 9dbd 007d 6fbc 406f 113c 0073 d5bb
00000390: f038 49bd 57a1 903d 02c9 513d 2b4f bdbd
000003a0: 6009 95bb 80d8 eb3b 0744 7dbd 18a9 90bd
000003b0: a38a b43d 2287 98bd 503f 1dbc 2b12 b4bd
000003c0: f600 203d 80a8 4a3c 5dfe bcbd a2f9 163d
000003d0: 6db9 9ebd f231 2a3d 5d1d 913d 7409 d73c
000003e0: e386 44bd 8a26 1cbd c2c9 cbbd c081 91bd
000003f0: 7826 e9bc 3aed 693d b7b8 26bd d3eb 973d

conv5.bias f4 [4]
-0.030239772 -0.042699303 -0.03687676 -0.009660363
00000000: 66b9 f7bc 77e5 2ebd 160c 17bd 8046 1ebc

conv6.weight f4 [1, 4, 5, 5]
0.09041658 -0.032734506 -0.045895875 -0.014892371 -0.094091184 -0.000690568 -0.050238747 0.05062771
-0.041929267 -0.00796946 -0.09389126 0.08683663 0.034922812 -0.06648588 -0.060285706 -0.070067726
-0.05982868 -0.059312884 0.01824199 -0.0035389392 0.06325337 0.03299685 0.03442382 0.06547658
-0.032718405 -0.07337761 -0.002287224 0.09952714 -0.083453044 0.06703294 0.027182765 -0.058009744
0.09863519 0.034287907 0.090582214 0.036566384 0.09018477 -0.025171757 -0.042154264 0.029684655
0.08696433 0.07945313 -0.026856102 0.09418792 0.09685267 0.07814378 0.0078115687 0.012312934
0.054288335 -0.067575395 0.044829823 0.043925576 -0.046099734 0.0058944225 -0.091796815 -0.0024145395
0.09158126 0.032014884 0.0119991675 0.01946117 -0.025975443 -0.041538503 -0.034146413 0.058387645
-0.08197647 0.050026767 0.016134158 -0.055268634 -0.02608063 0.025109477 0.068991534 0.02940207
-0.06930077 0.06214752 0.04181128 0.09604753 0.03642056 0.059229083 -0.03563167 -0.009472564
-0.015657343 -0.099852614 0.0068935975 0.004899487 -0.003831789 0.037754096 -0.08858126 0.034225784
-0.09474241 -0.06007576 -0.02925793 -0.06854413 -0.063415855 -0.08233313 -0.024299487 -0.09887493
0.010535896 -0.030925766 -0.0034387931 0.07141251
00000000: 542c b93d 9e14 06bd 50fd 3bbd 22ff 73bc
00000010: e1b2 c0bd 3c07 35ba 25c7 4dbd 005f 4f3d
00000020: 06be 2bbd 5792 02bc 104a c0bd 67d7 b13d
00000030: 390b 0f3d c029 88bd 25ee 76bd ab7f 8fbd
00000040: eb0e 75bd 11f2 72bd 3a70 953c 8ced 67bb
00000050: fc8a 813d b427 073d feff 0c3d 9618 863d
00000060: bc03 06bd 0047 96bd 40e5 15bb e3d4 cb3d
00000070: 6ee9 aabd 9148 893d 64ae de3c a09b 6dbd
00000080: 3f01 ca3d 7a71 0c3d 2b83 b93d a2c6 153d
00000090: cbb2 b83d 0035 cebc f3a9 2cbd 3c2d f33c
000000a0: 5b1a b23d 53b8 a23d 5401 dcbc 99e5 c03d
000000b0: b15a c63d d909 a03d 30f8 ff3b 30bc 493c
000000c0: 725d 5e3d f864 8abd 7a9f 373d 4eeb 333d
000000d0: 13d3 3cbd 0026 c13b f8ff bbbd 403d 1ebb
000000e0: f58e bb3d 0a22 033d 2898 443c 086d 9f3c
000000f0: 74ca d4bc 4724 2abd 1cdd 0bbd e227 6f3d
00000100: 48e3 a7bd dee8 4c3d c82b 843c 5d61 62bd
00000110: 0ca7 d5bc 64b2 cd3c 6f4b 8d3d 9cdc f03c
00000120: 90ed 8dbd 668e 7e3d 4e42 2b3d 91b4 c43d
00000130: ba2d 153d 329a 723d 84f2 11bd d032 1bbc
00000140: d443 80bc 877f ccbd b0e3 e13b e08b a03b
00000150: c01e 7bbb 0aa4 1a3d 176a b5bd 5630 0c3d
00000160: 4f08 c2bd 0012 76bd 54ae efbc dd60 8cbd
00000170: 2ce0 81bd 469e a8bd b80f c7bc f07e cabd
00000180: c09e 2c3c 0858 fdbc 605d 61bb b940 923d
