preUpsampling16.pth (torch, 71477 bytes, 15 tensors)

conv1.weight f4 [2, 1, 7, 7]
000000 46 bb 86 3d 29 aa 08 3e eb 2b 06 b9 e2 4c c2 bc
       0.06578688 0.13346161 -0.00012795597 -0.023718301
000010 8f 32 e7 bd 63 b3 bc bd b6 3d 07 3d 5c 24 56 bc
       -0.1128894 -0.09213903 0.033017837 -0.013070192
000020 83 71 c3 bc 57 f5 aa 3d 6a 43 fe 3c 8e 5f 00 3d
       -0.023857838 0.08347576 0.031038005 0.031341128
000030 4f bc 06 3e 7b d7 ab 3d a7 ef 70 3c 18 b1 d5 3d
       0.13157772 0.08390709 0.014705575 0.104341686
000040 7c 56 06 3e c3 a4 de 3d 80 0d 93 bc 72 ca 8e bd
       0.13118929 0.108712696 -0.017950773 -0.06972207
000050 06 97 6a 3c b9 6d 00 be da f7 35 bd 3a ec dc 3d
       0.014318233 -0.12541856 -0.044425823 0.10787244
000060 5b 60 be 3d 79 a7 18 3e 9a 30 55 bd c4 6d b1 3d
       0.09295722 0.14907636 -0.052048303 0.08663514
000070 d7 24 07 3e d0 ad ab 3c 35 df c8 bd 22 d4 c4 3d
       0.13197647 0.020956904 -0.09808198 0.096107736
000080 32 f2 40 bd 9f ad 3e 3c 19 5e 68 3d 49 d4 eb 3d
       -0.047105975 0.011638074 0.056730364 0.115150996
000090 12 1a b4 3d b6 b4 19 3e f5 e2 1a bd 5d 88 08 3e
       0.08794035 0.15010342 -0.0378141 0.13333268
0000a0 fd b2 84 bd 2c dc be bc 56 86 02 be af 56 2c 3d
       -0.06479452 -0.023298346 -0.12746558 0.042074855
0000b0 09 3c 4b 3c 58 70 01 be 2d 1b a7 bd 7d ca 15 bd
       0.01240445 -0.12640512 -0.0815948 -0.03657006
0000c0 b7 e1 d9 3d 41 3b 85 bd da db cc 3d e9 b1 fc bc
       0.10638755 -0.065054424 0.10002871 -0.030846553
0000d0 20 be a6 bd 62 52 99 3d a4 80 06 3e 13 b8 82 bd
       -0.08141732 0.074864164 0.1313501 -0.063827656
0000e0 ab cc 00 be f4 c0 c0 3d c7 91 a3 3d 8a df a2 3d
       -0.12578075 0.09411803 0.07986789 0.07952793
0000f0 eb 3f d4 3c 47 db 20 3e ea ad 8a 3d 73 15 b9 3d
       0.025909385 0.15708648 0.06771453 0.09037294
000100 d9 f1 0c 3e d4 86 c1 3d 10 4c 64 3d 30 e3 d1 3c
       0.13764133 0.094495445 0.0557366 0.025621027
000110 e3 ad fa 3d f7 e4 97 3d d6 90 c3 bd 97 f8 38 bd
       0.122401975 0.074167185 -0.0954911 -0.04515895
000120 1c e2 6f bd 11 7a 01 be 8a 8c e2 3d aa 73 59 bc
       -0.058565244 -0.12644221 0.11061962 -0.013272205
000130 77 46 f0 3d 0d 33 4f bd e4 7f c1 3d e3 c2 58 bc
       0.1173219 -0.050585795 0.09448221 -0.013230058
000140 0a 85 d5 bc 03 51 38 3c 28 9a ea bd 8c 36 27 3d
       -0.026064415 0.011249783 -0.11455184 0.040823504
000150 bf 88 5d bc b7 dc 8c 3d 61 eb b1 bc fc e8 84 bc
       -0.013521372 0.068780355 -0.021718683 -0.016224377
000160 5d d5 95 3c ff 91 3c 3d ad 1f b5 3c ae 74 88 bd
       0.018290216 0.04603767 0.02210983 -0.0666288
000170 58 10 c3 3d 18 c3 ad bb 65 44 99 3d bf 34 82 3d
       0.09524602 -0.005302798 0.07483748 0.06357717
000180 14 ed 8f bc 2e e4 cd bd
       -0.017569102 -0.100532874

conv1.bias f4 [2]
000000 93 fe b1 3d 35 21 90 bd
       0.08691134 -0.07037584

conv2.weight f4 [4, 2, 7, 7]
000000 d5 7b 51 bd 6d da 39 bc 66 97 06 3e d0 3e 67 bc
       -0.051143486 -0.011343581 0.13143691 -0.014114097
000010 eb 9a 09 bc 5c 3c c2 bd d3 a6 ee bc c8 a9 b8 3d
       -0.008398752 -0.09484169 -0.029132282 0.09016758
000020 d4 77 74 bd 71 57 0f bd 85 20 72 3d 42 f5 bd 3c
       -0.05968459 -0.0349955 0.059113044 0.023188237
000030 ef bc 9a bd 71 58 44 3d e3 e0 8a bd a6 7c 0b 3b
       -0.075555675 0.047935907 -0.06781175 0.0021284013
000040 3f c7 8d bd b3 46 7a bd 4b c3 fb 3b 6e 76 68 bd
       -0.06922769 -0.06110258 0.007683193 -0.05675357
000050 8a 7c c0 bd 44 a1 51 3d a1 c8 b5 ba f3 3e 83 3d
       -0.09398754 0.051179186 -0.0013868996 0.06408491
000060 f0 80 aa 3d b6 b0 ad 3c ca 4b ec bc c3 51 a4 3d
       0.08325374 0.021202426 -0.028844733 0.08023407
000070 92 34 d5 bd 71 26 89 3c cf 4f d4 bc 64 e8 69 3d
       -0.104104176 0.016741963 -0.025916962 0.05710639
000080 2d a4 c0 3d d8 58 3b bd 61 1b b4 bd d0 1a b8 bd
       0.09406314 -0.045739025 -0.087942846 -0.08989489
000090 d6 32 9b 3d 37 be be bc 30 7f 87 3d d1 c7 5f bd
       0.075780556 -0.02328406 0.06616056 -0.05463392
0000a0 b5 bb 58 bd 96 9a cd 3d 27 03 a1 3c df ef 68 bd
       -0.052913386 0.100392506 0.019654823 -0.056869384
0000b0 ff 97 ab bc c5 75 e9 3d 67 39 30 bd 41 61 dd 3d
       -0.0209465 0.11399416 -0.043023493 0.10809565
0000c0 f1 8e 54 39 3f 16 c8 3d e3 75 82 3b 87 be d5 3d
       0.00020271145 0.09769868 0.0039813383 0.10436731
0000d0 3b ae d0 bb ef d2 3b bb be 8b a9 3c 53 29 8e bd
       -0.006368426 -0.0028659662 0.020696517 -0.06941476
0000e0 b0 34 f2 3c b2 43 56 bd 35 d5 1b 3d f0 15 a6 3c
       0.029566139 -0.052310653 0.038045127 0.020274132
0000f0 02 ae d2 3d d5 ff 85 3d b3 47 af bc 43 44 c7 3b
       0.102870956 0.06542937 -0.021396494 0.0060811355
000100 4f 9f 8d bd b6 3b 7e 3d 1f ac 5a 3d bb 09 18 3d
       -0.06915151 0.062068664 0.053386804 0.037118655
000110 5d 13 6d bd 86 53 4b bd 84 03 98 3d a4 e1 07 3e
       -0.057879794 -0.0496402 0.074225456 0.13269669
000120 b8 cd 44 bd 8c 14 23 bd 52 70 86 3d 43 b5 91 3c
       -0.04804775 -0.039814517 0.06564392 0.017786628
000130 c5 43 0d 3d 07 17 81 bb 07 09 c8 bd 66 85 07 bd
       0.03448846 -0.0039395127 -0.09767347 -0.033086203
000140 35 49 db bd 26 e4 70 bd 72 c1 8a bd 85 31 92 3d
       -0.107073225 -0.05881133 -0.06775178 0.07138351
000150 39 1b fc bd 3d 4d 6b 3d d9 23 c1 bd 24 7b 53 3c
       -0.1230988 0.057446707 -0.094306655 0.012907777
000160 a0 f4 34 3d fe a8 ad bc 1c 10 c0 3d 36 ee 1b 3d
       0.044178605 -0.021198746 0.093780726 0.038068973
000170 19 1c c6 bb bf 57 85 bd d9 3b ae 3d bd 12 6e bc
       -0.00604583 -0.06510877 0.08507509 -0.014530835
000180 dc 28 a2 3d 8c c5 e3 bc 38 f3 07 3c d8 47 25 bd
       0.079179496 -0.027804159 0.008297734 -0.04035172
000190 52 35 ba 3d 62 79 be 3d 9e 61 2e 3d 2c b1 5a bd
       0.09092201 0.09300496 0.042573564 -0.05339162
0001a0 23 12 bc bd 50 d0 0f 3d 0c 64 ba bd 00 5b c0 bd
       -0.09183147 0.03511077 -0.09101114 -0.09392357
0001b0 5c d4 33 3c d0 45 a0 bd ba 96 ab bd 9b d9 e2 bc
       0.010975923 -0.07825816 -0.08378358 -0.027691653
0001c0 8d 30 5b 3d a1 6c d8 3d 67 b0 33 bc 5d 3e f5 3c
       0.0535131 0.10567594 -0.010967351 0.029936964
0001d0 42 f1 3e bd 4e b1 95 bd 9c bc 33 bd a7 c9 c2 3d
       -0.0466168 -0.07309209 -0.043881044 0.095111184
0001e0 b8 bc 99 3c b5 5a 71 3d e9 c4 96 3d 41 3f f9 bc
       0.018766746 0.058924396 0.073617764 -0.03042567
0001f0 a2 d6 84 3d 68 df 90 3d ac 12 c7 3d 3d 6e 8f 3b
       0.064862505 0.07073861 0.09720358 0.004377155
000200 1b e1 21 3c 58 33 a5 3d 77 cb 23 3c d7 de 04 3a
       0.0098803295 0.08066434 0.00999724 0.0005068606
000210 8a 72 16 3d 01 de df 3c 2a 91 aa bc 19 20 de bb
       0.036730327 0.02732754 -0.020821173 -0.0067787287
000220 86 19 d6 bc c0 fe b7 3c fc 22 8a 3d 7e 43 66 bd
       -0.026135217 0.022460341 0.06744954 -0.05621671
000230 01 13 36 3c 46 67 2b bd 0e e0 75 3d 58 3a a9 3d
       0.011112929 -0.041846536 0.06002813 0.08263081
000240 f9 f6 5f 3d ef 00 1c 3b cf d4 bf bd d7 1e 8c bd
       0.05467889 0.0023804267 -0.09366762 -0.0684182
000250 b1 7a 9c bd 01 2f b8 3d 37 c4 53 3d 22 ac 06 3c
       -0.07640589 0.0899334 0.051700797 0.008219751
000260 2d e3 b2 3c bd 4a 81 3d d6 98 d6 3d d9 a3 bd 3d
       0.021836841 0.06313083 0.1047837 0.09259767
000270 1b 58 98 bd 73 c1 17 bd 67 5e df bc b3 9f 35 3d
       -0.0743868 -0.037049722 -0.027266694 0.044341754
000280 c4 75 f5 3c 7c e8 0b b9 94 77 00 3e 4e cd 80 bc
       0.029963382 -0.0001334268 0.12545615 -0.015722897
000290 89 43 1c 3d 7c 6c f7 3c c6 fa fb 3d 18 1c cb bc
       0.038150344 0.030203097 0.123036906 -0.02479367
0002a0 45 f8 c0 3d 88 10 84 bd bd f1 d7 bd 56 a5 13 be
       0.09422354 -0.064484656 -0.10544155 -0.1441854
0002b0 8a 95 cc bd 36 84 87 bc a8 70 60 3b 47 5e e6 3b
       -0.0998946 -0.016542535 0.0034246836 0.0070302817
0002c0 50 15 6c 3d 11 80 19 3b a2 30 b4 bd 6f 2e a3 bd
       0.057637513 0.002342228 -0.087983385 -0.07967841
0002d0 d0 26 db 3b 13 28 3a 3d 91 0a eb 3d c5 d6 08 3e
       0.0066879764 0.045448374 0.11476625 0.13363178
0002e0 f5 8d b0 bc 61 5a 80 3d 45 25 e8 3d 1b 15 dd 3d
       -0.021552065 0.062672384 0.113352336 0.10795041
0002f0 2b f5 2c bd ae fc 8e 3d 39 be e3 bc 30 1d c6 3d
       -0.042225998 0.069817886 -0.027800666 0.09673536
000300 2d cf 82 bd b7 cc 52 3d 3b 5b 8c 3d 27 17 a7 3d
       -0.06387172 0.051464763 0.06853338 0.08158713
000310 35 b6 8c 3d e4 96 54 3d d9 0c 67 39 46 8a a9 bd
       0.06870691 0.051901713 0.00022034663 -0.08278327
000320 0c 67 c1 3d 79 eb 67 3d 73 cc 44 3d 88 7e f6 bb
       0.09443483 0.05662105 0.04804654 -0.007522408
000330 47 5f 72 3d e1 72 0e bd f0 0e 83 3b fe 23 a7 bb
       0.059172895 -0.034777526 0.0039995834 -0.005100726
000340 61 cd 15 3c 47 ae ad 3d 8a 6c 4a bc 77 a6 d6 3d
       0.009143204 0.084805064 -0.012354979 0.104809694
000350 ca e6 8d bd 2a 90 5a 3d e1 93 c8 3d 18 e1 c4 3d
       -0.06928785 0.05336014 0.09793831 0.09613246
000360 6c 75 5c 3d c4 e3 aa 3d 7f 4a 6e bc f7 86 51 bc
       0.05382292 0.08344224 -0.014544128 -0.012788526
000370 54 4d 16 3d 4f 02 b4 3d 1e be de 3d f9 7b 97 bc
       0.03669484 0.08789503 0.10876106 -0.018491732
000380 88 e8 f9 ba 8e 06 a3 bd 5c 80 0d 3d 85 8c 76 bd
       -0.0019066492 -0.079602346 0.03454624 -0.060192604
000390 71 d0 63 bd 47 8e 81 bd cd b2 88 3d b8 f0 fc 3c
       -0.055618707 -0.063259654 0.066747285 0.030876502
0003a0 b8 56 ab 3c 8f 9b 7c bd 95 d9 a9 bd 48 00 bb 3d
       0.020915374 -0.06167179 -0.082934536 0.09130913
0003b0 dc 02 b4 bd f0 91 34 3d 0d 34 40 3d 4f 24 f5 bc
       -0.08789608 0.04408449 0.04692464 -0.02992454
0003c0 e3 97 ba 3d d4 10 3b 3d 7b 18 99 3d 8e b4 56 3b
       0.09111001 0.045670345 0.074753724 0.0032761428
0003d0 78 c2 44 bd 42 12 07 bd dd af be bd 5a d0 32 bd
       -0.048037022 -0.032976396 -0.09310887 -0.04365573
0003e0 a3 53 0a bd 49 d2 af bd 18 ad de 3a d9 79 b8 3d
       -0.03377117 -0.085850306 0.0016988842 0.090076156
0003f0 7d c6 c7 3d 23 ea 92 bc 58 04 b2 3d 6c d1 c4 3d
       0.097546555 -0.01793391 0.08692235 0.096102566

conv2.bias f4 [4]
000000 e3 cb a4 3d 5c 73 de bc 1d b1 9c bd 88 e9 73 3c
       0.08046701 -0.027154617 -0.07650969 0.014887221

conv3.weight f4 [8, 4, 7, 7]
000000 8f 28 6d bd 32 5a ad 3d 3b fc ab bc 73 7a 9e bd
       -0.057900008 0.08464469 -0.020994296 -0.07738199
000010 4c 78 a0 3c 5f 69 cb 3b 35 27 31 3d 28 8a ca bd
       0.019588612 0.0062076296 0.04325028 -0.098896325
000020 4d b1 93 bd 75 a5 4f bd 2a 13 a8 3c ae b0 cc bc
       -0.07211552 -0.0506949 0.02051695 -0.024986591
000030 77 63 58 3c 33 d3 36 3d 07 99 3d bd 3e 81 a3 bd
       0.013207308 0.04463501 -0.046288516 -0.07983635
000040 91 0b 23 3d 08 a6 19 3e f2 c4 57 3c b1 2a 21 3c
       0.039805952 0.15004742 0.013169514 0.009836839
000050 39 60 8f 3d 90 15 cb 3c 8c fd d0 bc bc 6b 7d 3d
       0.07000775 0.024790555 -0.025511526 0.06187032
000060 bd bf 4b 3e 65 2c ba 3d d9 d5 83 bd 64 6d dc bd
       0.19897361 0.09090499 -0.064372726 -0.10763052
000070 cc 3a fe 3c 53 fb 05 be 87 0a 95 bd 39 f0 8c 3c
       0.031033896 -0.13084154 -0.072773986 0.01720439
000080 4e 6c f3 3d 32 10 05 bd 3f b6 33 be 64 35 1a bc
       0.11885892 -0.03248615 -0.1754999 -0.009412143
000090 bd 66 5c bd 1e 7b f6 bd 3a 7f 94 bb 94 55 1e 3e
       -0.053808916 -0.120352015 -0.004531768 0.15462333
0000a0 e0 22 ad 3d f2 e6 89 bc d9 d3 4e bb fa 54 0b 3d
       0.084539175 -0.016833756 -0.0031559377 0.034016587
0000b0 9f 3d a4 3c 87 6d 70 bc 1c 94 ab 3d 6c 89 9c 3c
       0.020048914 -0.014674551 0.08377859 0.019108497
0000c0 18 ea 82 3d 6d 75 09 bd 9e 8a 53 bc 47 34 34 bd
       0.06392306 -0.03355925 -0.012911467 -0.043995168
0000d0 c0 c8 36 bd 90 81 88 3c 39 b7 12 3d ae ff 93 3d
       -0.044625044 0.016663343 0.035819266 0.072265014
0000e0 fd da 83 bb 05 b8 4b 3d c2 6e c7 3c fd 20 77 bd
       -0.004023908 0.04973604 0.024344806 -0.060334194
0000f0 c1 6e e8 3c 06 82 99 bd 66 c1 fc 3b dc fe 82 3d
       0.028373124 -0.07495503 0.0077134846 0.06396267
000100 87 66 ff 3c c3 e0 bd 3c 53 16 27 bd ea 46 62 3c
       0.031176819 0.023178464 -0.040792774 0.013810853
000110 b0 2d 56 bd 5c d9 a9 3d 85 a2 19 3d 38 12 75 3a
       -0.052289665 0.08293411 0.037508506 0.0009348723
000120 60 84 85 3d c3 57 3c bc bd 17 8b bc 9f 4f de 3c
       0.06519389 -0.011495533 -0.016979093 0.027137576
000130 96 17 0e bc 70 d7 d6 bc d1 d7 9f bc 4d 50 b7 bd
       -0.0086726155 -0.026225775 -0.019512089 -0.08950863
000140 07 f0 09 3d 32 5e a7 bc ed 36 ed bc e9 07 8d 3d
       0.033676174 -0.020430658 -0.028956855 0.06886274
000150 e3 55 c9 3c d2 07 69 3c d1 e4 02 be 2f 16 ef bd
       0.024577087 0.014223056 -0.12782599 -0.11674153
000160 39 12 24 3d fc 7e ea bb a0 98 2a bc e1 37 2d 3d
       0.04005644 -0.007156251 -0.010412365 0.04228962
000170 79 00 cb 3c 7d 11 f2 bc 76 72 1e bd 0a d7 85 bd
       0.024780499 -0.029549355 -0.038683377 -0.06535156
000180 fa 78 a0 bd a9 aa 1b 3d 70 54 c6 bc 7f 0d 82 3d
       -0.078355744 0.03800455 -0.024210185 0.063502304
000190 f3 72 35 3c 28 a4 78 3d b2 3d f7 3c eb 8e 52 3d
       0.011074769 0.060703427 0.030180786 0.05140583
0001a0 9c 69 a6 3c 3d 54 83 3c cb 37 6f bd 23 d9 32 3d
       0.02031403 0.016031379 -0.058402818 0.04366411
0001b0 b7 2e 95 bb bd e2 42 bd 0b 93 7b bd a3 b4 59 bd
       -0.004552688 -0.047579516 -0.061419528 -0.053150784
0001c0 30 74 a4 bc 99 4b d5 bc 2f 80 39 bd 4d d0 0a 3c
       -0.020074934 -0.026037024 -0.04528826 0.008472514
0001d0 ff 73 53 3c cf bd 04 bd f7 aa 3c 3d 41 85 a4 3a
       0.012906074 -0.032407578 0.046061482 0.001255192
0001e0 94 f1 76 3d c9 ac 64 bd 06 2b 00 3b b1 e3 56 3d
       0.06028898 -0.055828843 0.0019556894 0.052463237
0001f0 b6 1c 6a bc c4 bc a3 bc 55 b6 2f 3c 0f 7c 98 3c
       -0.014289072 -0.019987471 0.010724624 0.018613843
000200 5d 36 c8 3c 6e ae 93 3d 49 bf 1b bd 56 f8 33 bd
       0.024439985 0.07211004 -0.03802422 -0.043938003
000210 ef 40 13 bc 82 7c 79 bd f0 f4 94 3d 78 50 39 3d
       -0.008987649 -0.060909756 0.072732806 0.045242757
000220 e5 d9 e2 3c 5c 90 32 bd a7 d0 71 bd e9 ca dd 3c
       0.02769179 -0.043594703 -0.059036877 0.027074294
000230 73 28 5f 3d 3b e7 2b 3d c1 8a aa 3d 68 77 a0 3d
       0.054481935 0.041968565 0.083272465 0.07835275
000240 5d 75 32 3d ee 6b 10 3d 27 2c 4c bd 70 c4 dc bd
       0.043568958 0.03525918 -0.049846794 -0.10779655
000250 c8 79 9d bc 77 0a 4e 3d 19 b4 3a bb c8 6e 4c 3d
       -0.019223109 0.05030295 -0.0028488694 0.049910337
000260 18 af d7 3c 9f e0 64 bc ac 75 92 3b 20 5b 52 3d
       0.026328608 -0.0139695695 0.004469594 0.051356435
000270 2b 74 86 3c 8b fe 39 3d 09 15 37 bd a5 1a 3f 3d
       0.016412815 0.045408767 -0.044697795 0.04665627
000280 0c ef 54 bc 79 a4 9f bc 77 4f 28 bd f4 0d f7 bc
       -0.012996446 -0.019487606 -0.04109141 -0.03015802
000290 62 0b 53 bd 9b f3 18 bd 79 77 ca bb 6c b0 7a bd
       -0.051524527 -0.037341695 -0.006178793 -0.061203405
0002a0 40 10 56 bd 89 51 d9 3d 35 0e 96 3c a7 f8 46 3d
       -0.05226159 0.10611255 0.018317321 0.048576977
0002b0 a0 fa 35 bd 64 b1 e8 bc aa 04 40 bc 25 b4 90 3d
       -0.044428468 -0.028404899 -0.011719862 0.0706561
0002c0 ed 3c 4a 3d 48 35 8d 3d c7 25 24 3c fa 5e 8d bd
       0.04937451 0.06894928 0.010018772 -0.06902881
0002d0 a8 a6 ce bc f0 23 a3 bc 4e 6a 54 3d 7b eb 82 3d
       -0.025225952 -0.019914597 0.051859193 0.063925706
0002e0 8c 84 3b 3d c1 1e a5 bc 98 1f e6 bc fa 77 7c bc
       0.045780703 -0.020156266 -0.028091237 -0.015409464
0002f0 47 cd 14 3b 72 29 5d bd c6 f9 47 3d d7 b9 33 bd
       0.0022705363 -0.053994603 0.048822187 -0.043878403
000300 7c 26 7b bd 5c 3d 9c 3d f2 b4 9a 3d 65 24 12 bd
       -0.061316 0.07628891 0.07554044 -0.03567924
000310 f6 35 b4 bd f9 2a f5 3c ba cb 5b 3d 86 fa 83 bd
       -0.08799355 0.029927718 0.053661086 -0.06444268
000320 e4 ae 89 bd cf 78 32 3d 1f d1 87 bd 76 d0 2b 3c
       -0.06722811 0.043572243 -0.066316836 0.010486713
000330 42 03 96 bd 89 bf 49 bc ca 61 50 3d 19 a6 f6 3b
       -0.0732484 -0.012313732 0.05087451 0.0075271246
000340 cc 90 8a 3c 50 65 fb 3c ae 34 3c 3d f7 3d 34 3d
       0.016914748 0.030687958 0.045948677 0.044004407
000350 4d 37 d6 3c 86 e1 89 bb 98 3b 9f 3d 53 bf 2d bd
       0.026149416 -0.0042077927 0.077750385 -0.04241879
000360 96 11 4d bd 67 b9 ed 3c 7c 79 8d bd 1f b8 9e 3b
       -0.0500656 0.02901907 -0.06907937 0.0048437263
000370 0b 7e 2f bd e8 95 5b bc 5e 0f 82 bd 14 04 8b bc
       -0.042844813 -0.01340244 -0.06350587 -0.016969718
000380 b4 72 74 bd 25 74 8e bd bc 4c 39 bc ff 9f 2b bc
       -0.059679702 -0.069557466 -0.011309799 -0.010475158
000390 e4 e6 25 3c 10 40 be 3b 8d 2f 49 3c c6 47 4a 3d
       0.010125849 0.0058059767 0.012279403 0.049384855
0003a0 46 f4 75 3c 23 37 48 bd e3 24 9a bd e3 c4 da 3b
       0.015011853 -0.048880707 -0.07526567 0.0066763028
0003b0 fc b7 57 bc 84 f5 bc 3c aa 4b 8f 3d ef 06 47 bd
       -0.013166424 0.02306629 0.06996854 -0.048590597
0003c0 f0 07 50 3d 35 ba 54 bc f3 0e 8d 3d 2f 0e 11 3d
       0.05078882 -0.012983848 0.06887617 0.035413917
0003d0 b1 a1 8d bc 1f 62 b4 3c 8a 27 ed bc 25 12 15 3d
       -0.017289015 0.022019444 -0.028949518 0.036394257
0003e0 cd 2b 63 3d b1 06 c9 bc 0d 5b 2b bb e8 51 8a 3d
       0.055461694 -0.024539324 -0.00261468 0.067539036
0003f0 66 07 7f 3a f2 5b fb bc 3e 41 4d 3c 6e 8c a3 bc
       0.00097285805 -0.030683491 0.012527762 -0.019964423

conv3.bias f4 [8]
000000 7d 67 db 3c 96 42 9d 3d 87 b2 34 3d 37 c3 b4 3c
       0.026782745 0.07678716 0.04411557 0.022065742
000010 f1 59 48 bd 04 db 4c 3d 7f 73 3b bc aa cb 56 3d
       -0.0489139 0.050013557 -0.011441111 0.052440323

conv4.weight f4 [16, 8, 7, 7]
000000 71 c0 82 3c c7 71 10 bd 03 f5 96 bc c3 bd 78 3c
       0.015960904 -0.035264757 -0.018427378 0.0151819615
000010 68 00 32 bd 47 ee df bb 3d da 60 bc ce 26 38 bd
       -0.04345742 -0.006833825 -0.013723907 -0.044958882
000020 47 e6 b7 3c d7 7d 96 bc 7d 30 2f 3c 04 1c 91 3c
       0.022448672 -0.018370552 0.010692713 0.017713554
000030 5f ff 32 3d ef fb e5 3c 50 44 b3 3c 58 5c 34 3d
       0.043700572 0.028074233 0.02188316 0.04403338
000040 35 37 e2 3c 21 54 30 bd 09 40 24 3d b7 49 21 bd
       0.027614215 -0.04304898 0.04010013 -0.03937694
000050 af db 30 bd af f7 3a bd 0b b3 79 3c d8 e5 9a bc
       -0.043178257 -0.045646366 0.015240441 -0.018908426
000060 19 db 94 bc d8 b8 da bc 7b bf 4c 3c 5a ef 06 3d
       -0.01817088 -0.026699468 0.012496824 0.032943107
000070 d7 20 b4 3b 3b b8 13 3d 53 c2 6a bc 78 7c 47 3d
       0.005497079 0.036064368 -0.014328557 0.048702687
000080 da ef ff ba 46 0a c5 bc 5f 4c 86 bc 8e 4e 19 bd
       -0.0019526437 -0.02405275 -0.016393838 -0.03742843
000090 08 aa 06 3d c7 e4 14 bc 39 91 56 bc ea 63 fd bb
       0.032877 -0.009087748 -0.013096147 -0.007732858
0000a0 b6 6c 1f 3d 19 66 f4 bb 98 39 15 bd 59 2e f2 bb
       0.038922034 -0.00745846 -0.03643188 -0.007390779
0000b0 e2 59 58 3d 98 a0 49 3d e5 26 85 3c 92 62 ab 3c
       0.052820094 0.04922542 0.016253898 0.020921025
0000c0 2a 30 80 bc 94 1d 4a bd 2b a9 b3 bc 6f 22 33 bd
       -0.015647966 -0.049344614 -0.021931252 -0.04373401
0000d0 c7 fd bb 3b 7c e4 a4 bc c3 6e a1 bc be 80 12 bd
       0.0057370397 -0.020128481 -0.019706136 -0.03576731
0000e0 30 26 37 bd 38 b6 f7 bc ce 36 8a 3c 34 ed 4e bd
       -0.044714153 -0.030238256 0.016871836 -0.050519183
0000f0 99 96 8d 3c 9b b2 88 3a 2a 95 29 3d 2e c5 27 3d
       0.017283725 0.0010429205 0.04140202 0.04095953
000100 ab 9f 55 bd ce a0 20 3d 79 af 82 bc cb db 59 3c
       -0.052154224 0.039215855 -0.015952813 0.013297032
000110 59 ce cc bb de eb f2 bc e7 83 42 bc 7b 18 21 3d
       -0.0062501845 -0.029653486 -0.011872268 0.039329987
000120 cd 86 08 3d 75 00 0f 3d 7d e3 3c 3d 8c 3d b8 bc
       0.03333168 0.034912545 0.046115387 -0.022490285
000130 3f 8a 3b bd bc 0d 51 3b b4 68 e4 bc be 81 dd 3c
       -0.04578614 0.0031899055 -0.027881958 0.027039405
000140 6b f7 44 3c db 60 32 bd 70 dc d3 bc b3 b0 2d 3b
       0.01202188 -0.0435494 -0.025861949 0.0026503026
000150 0d 28 c4 3c 2c 22 18 3d b3 e9 e2 3b 50 38 21 bd
       0.023944879 0.037141964 0.006924832 -0.039360344
000160 1c aa 23 bd 0b 2b 9d 3c 26 4a 4a bc e9 cf 30 3d
       -0.03995715 0.019185564 -0.01234678 0.04316703
000170 ec 75 2a 3d d3 4e 9b 3c 62 1a 12 3d f6 88 ff bc
       0.041616365 0.018958485 0.03566969 -0.031193238
000180 28 d3 bd 3c d9 a3 18 3d 58 11 2f bd 56 e2 4b 3c
       0.023171976 0.037265632 -0.04274115 0.012444099
000190 be 9b ac b9 3b 8e e6 3c 7c c5 61 3c cc 34 7b bc
       -0.00032922433 0.028143993 0.013779994 -0.015332412
0001a0 6c de 90 bc 4e 36 99 3c 1f a1 5f bc 3f b3 4b bd
       -0.017684184 0.018702652 -0.013649254 -0.04973149
0001b0 4e f5 d3 bc ce c3 0c bd 7c 27 3a 3d b3 39 57 bd
       -0.025873806 -0.03436642 0.04544781 -0.05254526
0001c0 08 cc a6 ba e5 63 92 3c 9c ff 0d bc c7 fe 80 bb
       -0.0012725601 0.017869899 -0.008666899 -0.003936622
0001d0 01 14 1d 3d c7 53 ee 3b 08 be 39 3d 53 fd 23 bd
       0.038349155 0.0072731706 0.045347244 -0.04003651
0001e0 68 98 bd 3c 88 a4 de 3c 56 13 ca 3c f3 a9 13 bd
       0.023143962 0.027178064 0.024667423 -0.036050748
0001f0 ba c5 7c bc 50 4a 64 ba 3f 1a 89 3c a2 2d b1 bb
       -0.015428001 -0.0008708583 0.016736148 -0.005407051
000200 c4 93 04 3b ca 94 bf bc c9 86 24 bb 19 85 49 bd
       0.0020229677 -0.023386378 -0.0025104752 -0.049199197
000210 bc af 13 bd 54 46 f4 bc 08 76 f9 bc 2c 9f f4 ba
       -0.036056265 -0.029818691 -0.03045179 -0.001866316
000220 39 45 93 3c 47 e6 2a bd 94 98 86 bc 6a 09 cb bc
       0.017977344 -0.041723516 -0.016430177 -0.024784762
000230 7f 59 1a bd e8 d2 ec 3b 7c 95 fb 3c bd 22 c2 bc
       -0.037683006 0.0072272904 0.030710928 -0.023698205
000240 4a 35 8e bc 1c b1 5b 3c ca d3 c0 bc ea ab 63 3c
       -0.017359395 0.013408925 -0.023538489 0.013895968
000250 b8 41 df 3c c3 e7 22 bd 39 09 e8 3c ed fb dc 3c
       0.027253017 -0.039771806 0.02832471 0.026975596
000260 85 9a 99 bc 66 62 85 3c 41 55 0c 3d 7e fb 0f bd
       -0.018750438 0.016282272 0.034260992 -0.03515195
000270 60 78 ce bc 1e 5c 0d bd f4 65 24 3d 0f fb f6 bc
       -0.025203884 -0.034511678 0.040136293 -0.030149011
000280 76 d0 2a 3d 1c 9f b7 3c cc be d8 bc 96 48 78 bc
       0.04170271 0.022414736 -0.026458167 -0.015154025
000290 ad 46 41 3d a9 8c fe 3c 9b 4d 1e bd 89 87 19 3b
       0.047186542 0.031072931 -0.03864823 0.0023426733
0002a0 97 48 17 bd ec 8d b3 3c 8f f8 c9 bb 6b b3 8e bc
       -0.03693446 0.02191826 -0.0061636637 -0.017419538
0002b0 0f 42 16 3b 3a b3 d5 bc cd f9 12 3d 4a 4d a6 3c
       0.0022927558 -0.026086438 0.03588276 0.020300526
0002c0 51 66 2e 3d 51 6c fb bc 7f 62 20 bd d6 26 35 bc
       0.042578045 -0.030691298 -0.039156433 -0.0110566225
0002d0 f7 55 97 bc 7e a8 a9 bc 0d 33 01 bc 08 5b 26 bb
       -0.018473608 -0.020710226 -0.007885707 -0.0025383849
0002e0 00 bd 73 bb 81 42 e0 bc 79 80 d7 3c c9 f3 09 bd
       -0.003719151 -0.027375462 0.026306378 -0.033679757
0002f0 c8 33 5a 3d 60 d0 c8 bb 10 09 69 bc 4b 7e bd bc
       0.05327204 -0.006128356 -0.014223352 -0.02313151
000300 6d 89 8b bc 74 41 34 3d c3 eb 68 bc 9d c6 1a bd
       -0.017033303 0.044007733 -0.014216366 -0.03778707
000310 4c a8 ec 3c be 4c 03 3d e3 21 69 bc d6 12 50 3c
       0.028888844 0.03205561 -0.014229271 0.012699803
000320 78 0e bc 3c 42 96 6e bc 6d d3 28 3d 8a 8d 3f 3d
       0.022956118 -0.014562191 0.041217256 0.04676584
000330 9c 21 da 3c d9 1f 4c 3d 98 26 a9 3c 7e 81 15 bc
       0.026627354 0.04983506 0.020648286 -0.009125112
000340 19 c6 79 3c 31 20 47 bd ce 79 4a 3d 95 d0 99 bc
       0.015244984 -0.048614684 0.04943257 -0.018776217
000350 a6 ce 1f bd 2d 93 08 bd 1b 5f 0d 3d 38 c3 bd 3c
       -0.039015435 -0.033343483 0.034514528 0.023164377
000360 08 0c 31 bd 9e 57 4a bd 17 0e 4a 3c b4 37 ab 3c
       -0.043224365 -0.049399965 0.012332461 0.020900585
000370 27 68 d3 3c 19 fb 48 3d a7 18 e2 3c 30 8d 00 b9
       0.0258065 0.04906759 0.027599646 -0.00012259628
000380 92 2b 26 3d a9 43 98 3b 59 4d e0 bc 7e 79 c3 3c
       0.040568896 0.0046467376 -0.027380632 0.023861643
000390 6f a3 67 3c b9 16 fe bc 53 b3 1e 3d fa 89 e3 3c
       0.014138087 -0.031016694 0.038745236 0.027775753
0003a0 2e 7f 45 3d 9f 52 f0 3b fc 20 01 3d f0 26 29 3d
       0.04821699 0.007334068 0.031525597 0.0412969
0003b0 fb 56 e6 3c c8 2a f2 bc c4 74 8a 3c be 1d e5 bb
       0.028117647 -0.029561415 0.016901381 -0.006992071
0003c0 0b ea f0 3c 2a ef 9a ba 63 15 17 bc 7e 2e 39 3d
       0.029408475 -0.0011820544 -0.009221408 0.045210354
0003d0 55 bd b4 3c b7 7f 84 bc 1f c2 09 3c f7 6f 20 bc
       0.022062937 -0.01617418 0.0084080985 -0.0097923195
0003e0 82 6d 2a 3d 7f 21 3d bd 94 d3 29 3d 6b 25 3d bd
       0.04160834 -0.046174522 0.041461542 -0.046178263
0003f0 59 27 45 bd 57 63 b9 3c b5 f3 33 3d f6 e5 19 bc
       -0.048133228 0.022630377 0.04393359 -0.009393206

conv4.bias f4 [16]
000000 11 e3 45 bd a8 3a 07 bd 66 33 b4 3d 4b 57 a6 bc
       -0.04831225 -0.033014923 0.08798866 -0.020305296
000010 45 4b b9 3c 26 10 cd bc 9b 8d 8b 3c be 74 55 3d
       0.0226189 -0.025032114 0.017035296 0.052113287
000020 02 de 03 bd df f4 01 3e e4 b3 62 3d ab e3 b3 3b
       -0.032194145 0.12691067 0.05534734 0.0054897866
000030 e2 eb 84 bd 18 26 2b 3c 0b 14 8c 3d 21 47 29 3d
       -0.064903036 0.010446094 0.068397604 0.0413276

conv5.weight f4 [8, 16, 7, 7]
000000 af 1b 83 3c 76 85 9c 3c 19 ef de bc 24 fa 05 bc
       0.016004412 0.019106608 -0.02721362 -0.008177314
000010 e0 f7 97 3a 0f df 4b bc 4f 8e f4 3c a9 c0 98 bc
       0.0011594258 -0.012443318 0.029853014 -0.018646555
000020 85 7e 3b 3c 23 52 06 3d 1b e7 01 bd 5a 4f e8 3c
       0.011443739 0.032793175 -0.03171454 0.02835815
000030 50 48 0f 3d 1b 60 53 ba 7f 45 47 3a 3a 2f c1 bb
       0.034981072 -0.0008063332 0.0007601603 -0.0058955224
000040 45 82 0c 3d 2b ea 91 3c f8 65 b8 3c 33 3c c2 bc
       0.034303922 0.017811855 0.02250956 -0.023710346
000050 69 13 25 bc da 4d 4b 3c b2 1d c7 bc fd 14 b8 3c
       -0.0100754285 0.012408698 -0.024306152 0.022470945
000060 86 82 f1 3b 3d 58 2d bb 5b 1b 6f bc b5 3b d4 3c
       0.007370296 -0.00264503 -0.014593924 0.025907377
000070 4a 3b 06 3b 0a 49 8b 3c 57 ba d0 3c 06 8f d6 3c
       0.0020482116 0.017002601 0.025479479 0.026191246
000080 6a 92 f0 3c 54 e3 4e b9 aa e9 6d bc f5 c9 22 bc
       0.02936669 -0.00019730377 -0.014521042 -0.009935846
000090 b0 a5 3d 3c 24 c4 cd 3a a3 5d 84 3c 68 61 cd 3c
       0.0115751475 0.0015698713 0.01615793 0.025070861
0000a0 d5 4e 82 bc 59 a7 5f bc a5 48 99 3c 88 35 86 3c
       -0.01590673 -0.013650739 0.018711397 0.016382948
0000b0 78 8c 97 3c b2 d3 e5 3b 15 42 46 ba 10 02 92 bc
       0.018499598 0.0070137614 -0.00075629476 -0.01782325
0000c0 f0 6b 61 3c c3 1f 67 3c 29 f6 63 bc 11 0d be 3c
       0.013758644 0.014106694 -0.01391367 0.02319959
0000d0 60 a9 ef bc c9 b4 a5 3c 7b 4b 95 bb 50 f5 33 3c
       -0.029255569 0.020227807 -0.004556117 0.01098378
0000e0 f0 ec 03 3d e8 59 55 bc d8 d4 bb bc c5 9e bb 3c
       0.032208383 -0.013021924 -0.02292864 0.022902856
0000f0 ed dc e1 ba 1d ab b7 bc 04 49 79 bc 42 d8 3d 3c
       -0.0017231979 -0.02242046 -0.015215162 0.011587204
000100 cc 9d 61 3c cb fd 42 bc 4e 4d 8d 3c 55 66 d0 bc
       0.013770532 -0.011901329 0.017248776 -0.02543942
000110 53 46 a0 bc 70 6e c2 3c de d5 09 3d e1 d9 ef 3a
       -0.019564783 0.023734301 0.033651225 0.0018299186
000120 67 6a 6a 3c 51 75 da bc d2 c7 00 bd df 26 0e bd
       0.014307595 -0.026667269 -0.031440563 -0.03470504
000130 4e b1 f6 bb e1 a0 52 3c d7 25 b5 bc 57 d7 aa bc
       -0.0075284606 0.012855739 -0.02211277 -0.020854635
000140 91 08 79 3c b6 c2 b8 bc b7 6a 07 3d d0 aa 8f bc
       0.015199796 -0.022553783 0.033060756 -0.017537504
000150 63 40 fe 3c 0e 25 89 3c ec 09 34 3c 1d 74 13 3d
       0.031036561 0.016741302 0.010988694 0.035999406
000160 7c 03 15 bc 3b 70 5a 3c 23 b7 96 bc 2f d5 4d bc
       -0.009095069 0.013332422 -0.018397873 -0.012563034
000170 30 09 95 3b 22 33 fb 3a 39 ca 4f bc 06 25 4a bc
       0.0045482144 0.0019165019 -0.012682491 -0.012337929
000180 23 93 29 bc 4f e1 0d 3d 9c 2c c0 3c 71 a4 52 3c
       -0.0103500215 0.0346387 0.023458771 0.012856589
000190 b6 76 1d bd 2b 91 8c 3b 81 e9 6b bc 7e 02 cf bc
       -0.03844329 0.0042897663 -0.014398933 -0.025269743
0001a0 8a cb 95 bc bf 63 fe bb 07 e0 95 bc 0f 7d 05 bd
       -0.018285532 -0.0077633555 -0.018295301 -0.03258997
0001b0 27 8f a8 b9 8e cd 5f 3c e6 fc 38 bd e0 96 5a bb
       -0.00032150114 0.013659848 -0.045163058 -0.0033354089
0001c0 a5 31 07 3c 1a ba 24 3c fa c5 83 3c 07 b8 95 bc
       0.008251582 0.010054136 0.016085614 -0.018276228
0001d0 fe c4 cd 3b 86 f7 3c bd 47 ea c5 bc d9 d6 9f bc
       0.006279587 -0.046134494 -0.024159564 -0.019511627
0001e0 1f 11 91 3c 02 b7 a2 3c 09 25 09 3c 64 c4 0b bd
       0.01770836 0.019862656 0.008370646 -0.03412284
0001f0 90 4f 8e 39 db 3e 88 3c 52 ac aa 3c 14 24 86 3c
       0.0002714363 0.016631534 0.020834122 0.016374625
000200 1e 8c 34 3c 9a f9 fb 3c 8d 9d 67 3c 35 ea ba bc
       0.011019735 0.030758668 0.014136684 -0.022816757
000210 b6 c4 f9 bc 04 f5 ea 3c 50 e6 83 3c 4b 23 38 ba
       -0.030489307 0.028681286 0.016101032 -0.0007024302
000220 97 69 d3 bc 8e 3a 4d 3c ec 21 a7 bc ca 8c 3d 39
       -0.025807185 0.012526168 -0.020401917 0.00018076893
000230 61 0d 10 bb da 97 c7 bc 7d 0b c2 ba 1b cd 8e bc
       -0.002198063 -0.0243644 -0.0014804449 -0.017431786
000240 98 3e 98 bc 9b bb 10 3d a8 2b d4 bc a9 1d b9 bc
       -0.018584535 0.035335165 -0.025899723 -0.02259715
000250 69 25 86 3c 17 2b aa 3c 6f ce 18 bd fc 28 84 3c
       0.01637526 0.0207725 -0.037306245 0.016132824
000260 e1 d5 7b 3c 9a e6 5b 3b ca 27 2f bc d8 cb 00 3d
       0.015370817 0.0033554197 -0.010690639 0.0314444
000270 70 4f c4 3c 06 b5 40 bc 22 98 b0 bc 04 3d f2 bb
       0.02396366 -0.011761909 -0.021556918 -0.0073925275
000280 30 be a2 3c 7d 7f 0f 3c ab 49 a5 bc d6 2a fc bc
       0.01986608 0.008758423 -0.02017673 -0.030782145
000290 19 0f ef bc b9 27 d5 3b 52 c6 86 3c a7 a8 43 3c
       -0.029182004 0.0065049795 0.016451988 0.011942065
0002a0 f1 5a 38 3a 42 e2 10 3c 91 01 a6 3b 6c 4c d6 3c
       0.00070325943 0.008843007 0.0050661047 0.026159488
0002b0 fa 3b 8f bb c3 ae 10 bd fe 71 44 3c eb 6e bb 3c
       -0.0043711634 -0.035322916 0.0119900685 0.022880038
0002c0 bd 6b e0 3b 6f a7 05 bd 56 33 cc 3c 71 f7 8a 3c
       0.006848781 -0.03263038 0.024926823 0.016963692
0002d0 95 f0 51 3c 72 06 f0 3c cf 83 49 3c b7 e3 f6 3c
       0.012813707 0.029299948 0.012299492 0.03013788
0002e0 de a4 0f bc 5c 09 88 3b af 94 f1 bc 6d 1c a0 3b
       -0.008767335 0.0041515063 -0.029489843 0.004886201
0002f0 e5 a2 20 bd 92 1d 8d bb b5 f1 2d bb d2 2f cc bc
       -0.03921785 -0.0043065036 -0.0026541774 -0.024925146
000300 9b d2 07 3d 55 a7 09 3d f1 1d f9 bc 12 18 8d bc
       0.033159833 0.033606846 -0.030409785 -0.017223392
000310 4a 47 f7 ba 94 69 04 3c 80 27 64 bc 02 cc e2 3c
       -0.001886585 0.008081812 -0.013925433 0.02768517
000320 d0 9d a5 3a cf 67 5d 3c f9 ee 9a 3c a2 01 47 3b
       0.0012635533 0.013513519 0.01891278 0.0030365963
000330 75 1b 8d bb 66 4a 97 3c 45 82 44 3b 72 ab c1 b9
       -0.0043062516 0.018468093 0.0029984873 -0.00036939565
000340 c1 fb e2 bc 41 66 05 3d 95 02 9a bc 77 42 80 3c
       -0.027707936 0.03256822 -0.01880006 0.015656693
000350 de 0c b8 bb 2e fa fd 3c f5 af 4c ba cd 84 60 bc
       -0.0056167683 0.031003084 -0.0007808202 -0.013703537
000360 35 2a 2b 3c aa 5b 9a 3b c5 36 09 3d cb c4 fc bb
       0.010447075 0.0047106342 0.033499498 -0.0077138892
000370 30 35 0c 3d 40 d5 b1 bc 69 95 a1 bc e3 23 64 b9
       0.03423041 -0.02170813 -0.019724565 -0.00021757143
000380 35 bc 0b 3d ea fe 52 3c 92 5e 5a bc 7c a0 f3 3c
       0.034115035 0.012878159 -0.013328211 0.02973961
000390 ec ad 48 bc 75 17 b8 bb e8 00 d8 3c 94 8d 0d 3c
       -0.012248497 -0.0056180307 0.02636762 0.008639712
0003a0 3a d8 2a 3d 5e 1e b3 bb 6d ef af 3c 09 1e 0b 3d
       0.041710116 -0.0054662665 0.021476472 0.03396419
0003b0 bd 3c 25 bc 29 55 47 3c ef a9 4c ba 25 cc c1 3b
       -0.010085282 0.0121663 -0.00078073045 0.0059142285
0003c0 5e d8 0b 3d d7 2e 04 3d 03 f7 a7 3c 92 d6 91 3c
       0.03414189 0.032271232 0.020503527 0.01780251
0003d0 b5 8e 02 3d df 53 0b 3d b8 fd 91 bc 79 af 99 bc
       0.031874377 0.034015533 -0.017821178 -0.01876043
0003e0 ad 69 a3 3c 26 ae 27 3d 93 4c 15 3c cf 0a 48 bc
       0.019947851 0.040937565 0.009112495 -0.012209608
0003f0 9a e6 c7 bc af e6 49 3b 5b 1b a4 bc bb 60 1c 3d
       -0.024401952 0.0030807664 -0.020032575 0.038178187

conv5.bias f4 [8]
000000 0d 7d f5 3c 1e 6d 11 3d 64 2a ea bc d2 2b 54 3c
       0.029966855 0.035504453 -0.028584667 0.012949901
000010 21 dd cb bb 78 3a 5f 3c 2f fd ef 3c b2 5a ce bc
       -0.006221429 0.01362478 0.029295532 -0.025189731

conv6.weight f4 [4, 8, 7, 7]
000000 df 34 79 bc 67 47 f7 bc f6 5f 6f 3d c9 e8 a3 3c
       -0.015210359 -0.030185414 0.058441125 0.020008462
000010 11 0c 18 bc aa 97 ae bc a5 d8 df bc 46 bb 2f 3d
       -0.009280221 -0.021312553 -0.027324984 0.042903207
000020 5f 2c 51 3d 34 d8 03 bd 7b ec 30 bd ae d1 1e 3d
       0.051067706 -0.03218861 -0.043194275 0.038774185
000030 59 36 be bc 40 75 aa bc 58 7f 09 bc 0c d2 17 3d
       -0.023219274 -0.020807862 -0.0083921775 0.03706555
000040 b6 c1 19 3d 6e 30 16 3c 5d d5 2f bd d2 cb 82 bb
       0.037538253 0.00916682 -0.04292809 -0.0039915824
000050 dd e2 25 3c 13 e9 1e bd 21 85 dc 3c cb 33 f9 bc
       0.010124889 -0.038796496 0.02691895 -0.030420205
000060 fe ab 6f 3c 05 e7 23 3c af d2 9b bc a9 23 81 bc
       0.0146284085 0.01000381 -0.01902136 -0.015764074
000070 9d 2d 55 3d a4 bd 1c bd c7 d4 d4 3b 18 ea 71 ba
       0.052045453 -0.038266793 0.0064950916 -0.0009228303
000080 b2 b0 c6 bc 64 8e 62 bc 67 e3 a1 3a 14 b6 d8 3c
       -0.024254177 -0.013827894 0.0012351096 0.02645401
000090 af 65 f8 ba cb 58 dd 3c 51 d7 07 bd 0b 1c f1 3c
       -0.0018951203 0.027019879 -0.033164326 0.029432317
0000a0 0a 52 4d 3d 41 b7 31 3d cd 2d 52 bc cc c0 1b bd
       0.050127067 0.043387655 -0.012828303 -0.038025662
0000b0 60 77 e2 3c d8 36 f3 bc e4 83 65 bc ea 77 e9 3b
       0.027644813 -0.029689237 -0.014008496 0.0071248906
0000c0 4f 48 2d bd 5e 7a 86 3d 81 b1 6a 3d 38 90 c9 bc
       -0.042305287 0.065663084 0.057298187 -0.024604902
0000d0 40 7c 62 3d 58 3c c2 3c 3e 3d 9b 3c e3 76 57 bc
       0.055294275 0.023710415 0.018950101 -0.013150903
0000e0 d5 35 69 3d ec 04 d2 3c c6 44 6e bc 36 69 23 bd
       0.056936104 0.025637113 -0.014542764 -0.03989526
0000f0 26 2a d7 bb 46 e4 8a 3b f6 8e 42 3d 5a 00 23 3b
       -0.006566304 0.004238638 0.04749962 0.0024872036
000100 99 39 ba bc 2f ac e8 bc 18 d0 78 bc 2c 7d 0b bd
       -0.022732543 -0.028402416 -0.015186332 -0.03405492
000110 32 a5 14 3c 29 3b 18 bd d3 0f 4b bc d2 79 54 3d
       0.009072589 -0.037165795 -0.0123939095 0.05187399
000120 13 34 0c bd bc 9c 2a 3d da 9d 18 bc fd 84 53 3c
       -0.03422935 0.04165338 -0.0093149785 0.012910125
000130 14 c6 49 3d 18 80 81 3c 62 66 24 bd e9 0b 8a 3c
       0.049261168 0.01580815 -0.040136702 0.016851382
000140 7e 37 84 3c 5e 70 3d 3d dc e1 c3 bc 83 c5 9e bc
       0.016139742 0.04624974 -0.02391141 -0.01938129
000150 e8 64 72 3c 25 ef 20 bc 3d 95 42 bd 16 36 b4 38
       0.014794566 -0.0098226415 -0.047505606 8.593143e-05
000160 31 87 b7 ba 7a ad e2 bc 33 85 1b 3c df a9 ff bc
       -0.0014002082 -0.02767061 0.009492206 -0.03120893
000170 00 38 82 3c 8e b0 24 bd 21 e3 0f bd b0 e8 a2 3c
       0.015895844 -0.04020744 -0.035128716 0.019886345
000180 22 84 9a bc c2 52 01 3d e6 69 80 bb d5 0f a5 3c
       -0.018861834 0.031573065 -0.003918874 0.02014915
000190 2a 6e 09 bd 56 0a e4 bc df 4b d5 bc ae f4 38 3d
       -0.033552326 -0.02783696 -0.026037155 0.04515522
0001a0 2b 67 34 3c fd ce 73 3d 0d 60 ba bb a6 3e 1f 3d
       0.011010925 0.05952357 -0.0056877197 0.038878106
0001b0 f9 f6 88 3d 4f 7e d1 3b da fd 88 3c 07 b4 5b 3d
       0.06687731 0.006393231 0.016722608 0.053638484
0001c0 38 64 e3 3c b6 6f 21 3d 90 05 14 bc 5f de 26 3d
       0.027757749 0.039413176 -0.009034529 0.040739413
0001d0 58 80 83 3d 24 12 69 3c cf a2 dd 3b 21 48 38 bd
       0.06420964 0.0142255165 0.006763793 -0.044990662
0001e0 2a b5 d4 bc 22 e5 45 bd d0 fc 5c bd e9 b6 3c 3d
       -0.025965292 -0.04831422 -0.05395204 0.046072874
0001f0 99 33 4e 3d c1 a7 76 3c 09 b7 40 3c 36 8d 8d 3c
       0.050342176 0.015054644 0.011762389 0.017279249
000200 a4 eb 89 3c 0d ab 4d bd 04 c0 ed 3c aa 79 4b bc
       0.016835995 -0.050211955 0.029022224 -0.012419144
000210 05 58 74 bd e6 44 2e bc c6 55 55 bd 85 94 00 bd
       -0.059654254 -0.010636544 -0.052083753 -0.03139164
000220 d9 54 14 bd 75 60 a1 3b a0 17 f6 bc 6e 94 09 bd
       -0.03621373 0.0049248287 -0.030040562 -0.03358882
000230 8d b5 41 bc d6 6a bc 3c d8 16 9b 3b 12 aa cd bc
       -0.01182307 0.023000162 0.004732948 -0.02510551
000240 29 8d 76 bd 2f eb ee 3c be 32 a4 bc 9c c1 82 3b
       -0.060193215 0.029164879 -0.020043727 0.003990365
000250 11 63 53 3c 3f f3 17 3d 9a 77 ae bb 55 a3 03 bc
       0.012902037 0.037097212 -0.005324316 -0.008034547
000260 f4 a8 9b 3c 8b aa ae 3c 05 88 d1 bc ae 7d 12 bd
       0.019001462 0.021321556 -0.025577554 -0.03576439
000270 b2 57 07 3a 9a 5b dc 3b db 5c 17 3d f9 fb 48 3d
       0.0005162909 0.006724787 0.03695379 0.049068425
000280 4c 51 89 bb 30 c3 9f 3c 68 48 cb bc 0f 0a 29 bc
       -0.0041905995 0.019502252 -0.0248148 -0.01031734
000290 e0 87 ec bb 4d 40 15 bd 58 91 3f 3d 2b 90 aa bb
       -0.007218346 -0.036438275 0.04676947 -0.0052051744
0002a0 58 9e 11 3d cc 9a d3 3c 12 4c 0b 3d 04 08 e2 3c
       0.0355514 0.025830649 0.034008093 0.027591713
0002b0 3e a8 05 3d 69 e8 39 bd ac 03 c5 3c cb df 18 3b
       0.03263115 -0.04538766 0.024049602 0.002332675
0002c0 a3 aa c1 3c 83 b7 2c bd a6 b4 14 bd cf cc 4a 3c
       0.023640936 -0.042167198 -0.036305092 0.012377932
0002d0 f8 fe 4d 3c 56 08 e3 3c ff 08 f4 3b 3c de 90 3b
       0.012572996 0.027713936 0.0074473615 0.0044210237
0002e0 8a 12 e6 bb 72 7b 49 3d a2 2f 0a 3d 8b b6 9c 3c
       -0.007021253 0.049189992 0.033736832 0.019130012
0002f0 3d be 08 bd 05 32 e1 bc 7d 47 2f 3c 9a 8e 28 bd
       -0.03338455 -0.027489671 0.0106981965 -0.04115162
000300 4a b6 bf 3c 6c fa 2e 3c 99 78 25 bd 56 56 13 bc
       0.023402352 0.010679822 -0.040398214 -0.008992752
000310 ef cb 10 3c 07 78 30 bc 54 a2 6b bb 53 a3 bd 3b
       0.008837684 -0.010770804 -0.003595491 0.005787292
000320 2a a3 06 3d e6 16 cc 3c a5 1d ea 3c bf e7 41 bd
       0.03287045 0.024913263 0.028578589 -0.04734015
000330 7c d8 04 bd 25 f3 06 3c 3b 05 fc bc ea 55 2c 3d
       -0.032433018 0.008236681 -0.030764213 0.04207412
000340 a1 ae 6f 3c 9b 8f 80 bb 25 49 c6 bc aa e2 3d bd
       0.014629037 -0.003923369 -0.0242048 -0.04635874
000350 52 26 69 bc e9 da c7 bc 3e a8 ad 3c 2c 38 53 3d
       -0.014230328 -0.024396377 0.021198388 0.05156724
000360 00 b6 03 3d 4e f1 4b bc 1f f8 8c bc f0 44 45 3d
       0.03215599 -0.012447668 -0.017208157 0.048161447
000370 eb 5f e3 3a 7b 05 15 3d e6 57 2c 3d a8 35 bb 3c
       0.0017347311 0.03638218 0.042076014 0.022852734
000380 af 91 26 3d e9 ab 7b bc d3 4a 1a 3d d3 8f a3 3c
       0.04066628 -0.015360811 0.037669014 0.019966042
000390 ae 3f 8a ba 60 55 e3 bc b8 d6 7a 3d 30 60 2d bd
       -0.0010547542 -0.02775067 0.061239928 -0.04232806
0003a0 1f 32 30 3d b4 28 88 3c 72 bc 84 3c 6e 3e be bc
       0.04301655 0.016620971 0.016203139 -0.023223128
0003b0 46 89 5a 3d 52 e5 4b 3d c3 4f 90 bc fd 2f 21 bc
       0.05335357 0.049779244 -0.017616158 -0.009838101
0003c0 31 99 a5 bc 6e d0 05 bd ca ff d0 ba 0e bf 6c bb
       -0.020214649 -0.032669477 -0.0015945372 -0.003612462
0003d0 a6 c2 d1 bc fc 40 8e 3c 0d 39 50 bc 73 71 fc 3c
       -0.02560551 0.017364971 -0.0127089145 0.030815816
0003e0 32 80 a6 3b 34 9b ce bc 8d 92 52 3c b4 90 53 3d
       0.0050812 -0.025220491 0.012852323 0.05165167
0003f0 64 58 6b bc 2b 84 13 bd d5 08 06 bc dd 16 51 3d
       -0.014364336 -0.036014717 -0.008180817 0.051047195

conv6.bias f4 [4]
000000 69 a2 5c ba 3b 74 33 bd ad c5 2c 3d 06 fc 15 3c
       -0.0008416535 -0.043812018 0.042180706 0.009154325

conv7.weight f4 [2, 4, 7, 7]
000000 f6 dd 60 bb 79 5b ad 3c c4 a1 95 3c 2e 2d 8b bd
       -0.0034311987 0.021161782 0.018265612 -0.06795727
000010 b6 84 68 bb ca e3 89 bc 43 19 25 bd ea 83 77 3d
       -0.0035479493 -0.016832251 -0.040307295 0.060428537
000020 81 de 93 bd 43 74 11 bd d3 45 97 bd 23 7a 49 bd
       -0.072201736 -0.035511266 -0.07386365 -0.049188744
000030 aa 1a 18 bd 97 98 a2 bb 0f 66 37 bb f6 42 85 bd
       -0.037134804 -0.004962038 -0.0027984416 -0.065069124
000040 7d ca 8d bd 17 f4 0d bc c2 eb dc bc 3d 19 ab bd
       -0.06923387 -0.008664153 -0.026967887 -0.08354423
000050 65 83 67 3d fa 98 90 bd 14 f4 0f 3d 89 c3 92 bd
       0.056521792 -0.07060428 0.03514488 -0.071662016
000060 85 dc 41 3d 94 65 68 bc 97 7d 2b bd ff d8 df 3c
       0.047329444 -0.014184374 -0.04186782 0.027325151
000070 21 ee 9a bd 96 73 8c b9 60 2d 5e bd b1 d0 95 bd
       -0.07564951 -0.00026789 -0.05424249 -0.07315195
000080 74 c5 35 bd db a3 a6 ba 85 4c 38 bc 61 20 3a 3d
       -0.04437776 -0.0012713628 -0.011248712 0.045441035
000090 98 da 24 3c a9 15 7f bc 8d 65 88 3d 84 22 4c 3b
       0.010061882 -0.015569129 0.06659994 0.0031148503
0000a0 55 ca 58 3c a7 71 41 3c 4c c9 74 3b 4a a3 49 bc
       0.013231833 0.011806882 0.0037351428 -0.012306998
0000b0 fa e2 bd bc 26 50 bf bc 9d 92 20 3c de bd 7d 3d
       -0.02317952 -0.023353647 0.00980058 0.06194865
0000c0 e9 5d 35 bc 78 4a 40 bd ec 79 58 bd 70 df fd bc
       -0.011069753 -0.04694602 -0.05285065 -0.030990332
0000d0 b7 4d 86 3d 93 5d 48 3d b2 30 e4 3b 78 2d e8 bc
       0.06557792 0.048917364 0.0069638127 -0.028341994
0000e0 c6 e2 77 3d 54 fa 1d bd d7 6c 2e bd 1b d3 51 3d
       0.060519002 -0.03856881 -0.042584267 0.051226716
0000f0 29 ee 82 3d 54 c9 88 3d 2c 72 2c 3d ec 39 5a 3d
       0.06393082 0.06679025 0.04210107 0.053277895
000100 7c de dc 3c 89 cd 81 bd 03 47 7e bd 65 89 88 bc
       0.026961558 -0.06338031 -0.06207944 -0.016667077
000110 18 9b 19 3d 95 7b b4 bc 53 81 cc 3c 79 06 69 bd
       0.037501425 -0.022031585 0.02496401 -0.05689094
000120 9d e5 dd 3c e9 6b 8a 3d 17 f7 ff bc 54 29 5d bb
       0.027087027 0.067588635 -0.031245751 -0.0033746557
000130 b9 fe 0e 3d 58 56 8e bc 7f 18 94 3d f4 3a 4f bd
       0.03491089 -0.017375156 0.07231235 -0.05059333
000140 09 5e 8b bd 60 c7 fe bb 52 e8 57 bd 01 70 e6 bc
       -0.06805045 -0.007775232 -0.052711792 -0.02812958
000150 15 db 8a 3d dd 41 8f 3d 99 43 3b 3c d3 5e 3b 3d
       0.06780068 0.06994984 0.011429691 0.04574473
000160 51 6a 7a bd 73 d0 6b 3d 79 73 75 bd 51 6e 69 bd
       -0.061136547 0.05757184 -0.059924576 -0.05698997
000170 8d 92 a5 bc 2f 07 5d bd 0e 49 26 bd 43 2d 26 bd
       -0.020211482 -0.05396193 -0.040597014 -0.04057051
000180 b5 f5 8c 3d a9 b5 cb 3c 26 21 31 3d 9d b9 32 bd
       0.068828024 0.024866896 0.043244503 -0.043634046
000190 88 e6 20 3d 7b 00 a5 bc be 68 38 3d 17 4d 64 bd
       0.03928235 -0.02014183 0.045021765 -0.05573758
0001a0 97 6e 09 39 5e cb 6d 3d f1 36 4f 3d b3 00 1d bd
       0.00013106536 0.058055274 0.050589506 -0.038330745
0001b0 86 20 50 3d 84 91 93 3d 3d 97 18 bd e0 51 f5 bc
       0.050812267 0.07205489 -0.037253607 -0.029946268
0001c0 13 75 95 3c 3f b6 e8 bc 17 3a 4d bd 04 3e 44 3d
       0.018244302 -0.028407214 -0.050104227 0.047910705
0001d0 e9 bf 30 bd 09 0a 84 3d 80 c7 31 bd 32 ee 36 3a
       -0.04315177 0.064472266 -0.04340315 0.0006978243
0001e0 d7 64 21 bb 22 3d 83 3d ef 18 97 3d f7 af 3a bd
       -0.0024626756 0.064081445 0.073778026 -0.04557797
0001f0 ea 71 fc 3c 56 17 0c 3d f2 5e 51 3d ce 11 2b bb
       0.030816037 0.034201942 0.051115938 -0.0026103142
000200 82 c8 3e bd e8 03 a7 3b 28 d8 18 3b 16 c7 07 bd
       -0.046577938 0.005096901 0.0023322199 -0.033148848
000210 77 da d9 bc 7c 5c 87 3d 65 9d c5 bb de 25 8d 3c
       -0.02659343 0.06609437 -0.006030726 0.01722997
000220 e8 ee c2 3c ac ce 8a bc 9c 6a 5b bc db bf 5f 3d
       0.02379556 -0.016944252 -0.013392117 0.054626327
000230 19 d0 9c 3d 97 1f d7 3c 78 66 7b 3d 40 b1 5b bd
       0.07656879 0.02626018 0.06137702 -0.053635836
000240 b5 d3 46 3d 08 6e 97 3d 5c a6 98 3d e2 24 91 3d
       0.048541743 0.07394034 0.074536055 0.07087113
000250 55 a5 25 bd 29 c4 3c bd cd d5 09 3d 1f d9 bc 3c
       -0.040440876 -0.04608551 0.033651162 0.02305275
000260 48 19 98 3b ff 8a 4d 3d 4f bc 10 bd 2e dc 31 bd
       0.0046416856 0.050181385 -0.035335835 -0.04342287
000270 bd 1a 1d bc 51 4b 59 bd 4d 78 1d bd 3d 0e 54 bd
       -0.009588894 -0.053050343 -0.038444806 -0.05177139
000280 52 52 f8 bc 45 09 2c 3c 37 7a 84 bc 1f 13 e8 bc
       -0.03031269 0.010500257 -0.016171558 -0.02832943
000290 14 a2 d4 bb 5c 90 b7 3c 28 a9 85 3d 3d c5 f9 3c
       -0.006489048 0.022407703 0.065264046 0.030489558
0002a0 c0 54 6a bc 96 b3 3c bc 9b f8 40 bd 21 75 d2 bc
       -0.014302433 -0.011517426 -0.04711209 -0.025690617
0002b0 7c 8f 4a bc 3d fc ad 3c 05 46 26 3b 4d 30 2e bd
       -0.012363311 0.02123844 0.0025371325 -0.042526532
0002c0 09 85 dc 3a a2 d6 a4 bc 77 e0 33 bc 92 0e f2 bc
       0.0016824316 -0.020121876 -0.01097881 -0.029547963
0002d0 2d a9 3c bc a5 77 95 3d 1a 25 04 3d 8e d6 ee 3b
       -0.011514944 0.07298211 0.032261945 0.0072887605
0002e0 e7 a5 9f 3d 85 c4 37 3d 2c 07 60 3d 7d ae ee bc
       0.07795315 0.04486515 0.05469434 -0.029135937
0002f0 ae f9 e5 3c 5e 5f 37 3d ca a5 8d bc 93 32 7e bd
       0.028073158 0.044768684 -0.017290968 -0.06205995
000300 21 7e 96 3d 1d 78 44 3d af 6d 46 bd cd e8 04 bd
       0.07348276 0.04796611 -0.048444446 -0.03244858
000310 a0 8d 01 bc b6 57 de 3c b7 c3 65 bd b0 40 ed 3d
       -0.007907301 0.027141433 -0.05609485 0.11584604
000320 12 69 34 3c 68 3d 10 3c a2 a8 95 bd a9 18 6e bc
       0.011011379 0.008803703 -0.07307555 -0.014532247
000330 22 7a 0f bd 40 d3 24 bd d4 a9 b1 3c 9d 1f cb 3d
       -0.035028584 -0.040240526 0.021687426 0.09918139
000340 db 2a 1a 3b 14 52 3a 3d c8 de a6 bd 60 f5 f1 bd
       0.002352408 0.045488432 -0.08147961 -0.1181438
000350 81 ab 1f 37 f2 c4 90 3d 81 24 07 3c 84 2e c2 3c
       9.51707e-06 0.07068814 0.008248449 0.023703821
000360 ad 68 83 3d 89 6c c1 bd 92 f7 f8 bd b4 52 fd 3d
       0.0641645 -0.094445296 -0.12156595 0.1236929
000370 72 bb 4d 3e 53 2b 0d bd a4 02 b6 3d e3 95 1b 3e
       0.20091036 -0.034465145 0.088872224 0.15193896
000380 81 00 f3 b9 0c 68 c7 bd dc 77 1b 3d 73 01 05 3e
       -0.00046348947 -0.09736642 0.037956104 0.12988834
000390 35 d6 91 bd ff 8e 0b 3d cf cf 29 3e 3b a4 ba 3d
       -0.07120935 0.03407192 0.16583179 0.09113356
0003a0 b3 b4 18 be 63 44 a8 bc 09 3d b4 3d fb 45 45 bc
       -0.14912681 -0.020540422 0.08800704 -0.01204061
0003b0 57 d4 84 bc cd 25 cf 3d e5 01 83 3d 9a 72 9c 3c
       -0.016214533 0.10114632 0.06396846 0.019097615
0003c0 ea ea 41 bc 69 4e 04 3d 3b ad 1f bd 3d 16 0f be
       -0.011835793 0.03230134 -0.038983565 -0.13973327
0003d0 cd e9 35 bd 69 11 38 bc 67 06 d9 bd 26 1f 16 3d
       -0.044412423 -0.01123462 -0.10596924 0.0366508
0003e0 90 51 98 38 c6 a2 73 bd 0b a1 b4 bc a0 08 2a 3d
       7.263117e-05 -0.059481405 -0.022049448 0.04151213
0003f0 10 cd ac 3d 52 eb 34 bd b6 49 a9 bd b9 cf 12 3d
       0.0843755 -0.04416973 -0.08266012 0.03584263

conv7.bias f4 [2]
000000 4d d5 c9 3c 8b 66 66 3c
       0.024637843 0.014062534

conv8.weight f4 [1, 2, 7, 7]
000000 36 42 70 bc 8b 29 13 bc 0e b4 56 3d 18 6f 93 bd
       -0.014664223 -0.008982073 0.052417807 -0.07198924
000010 44 9e 1e bb 43 fc d1 bc aa 16 7c 3d 9e 65 9e bd
       -0.002420322 -0.025632983 0.06154505 -0.07734226
000020 69 25 7a 3c fd 49 20 bd 58 80 d8 bc 60 79 b5 3d
       0.015267708 -0.03913306 -0.026428387 0.08861041
000030 65 48 6a 3d 46 41 b3 bc da 3d 8a 3d f9 ce 4c 3d
       0.057197947 -0.02188171 0.067500785 0.050002072
000040 d7 87 17 3d f6 55 dd ba 41 8d e7 3c ee 7e 52 3a
       0.03699478 -0.001688658 0.028265597 0.0008029778
000050 70 42 7f bd 08 91 90 3d bf 50 79 bb fb 83 7d bd
       -0.06231922 0.070589125 -0.0038042513 -0.061893445
000060 cb b7 a7 bc 44 dc 09 3d bd f3 dc 3d 40 a6 9b 3d
       -0.020473382 0.033657327 0.10788677 0.07600069
000070 22 6c cc 3b ae 75 83 3d a8 ee a2 3a ef e9 d2 bb
       0.0062384764 0.0641893 0.0012430744 -0.0064365785
000080 8d e8 ae 3d 7f c0 9c 3b b5 02 93 3d 67 2b 3c bd
       0.08540449 0.0047836895 0.07178251 -0.04593983
000090 c0 ad b8 3d 23 0f c8 3d ea fe a3 bd 63 6d a1 bd
       0.09017515 0.09768512 -0.080076054 -0.07882192
0000a0 7f d8 cf 3d 3a 3d 10 bd cd a4 6a bc 54 2e 55 3d
       0.10148715 -0.03521464 -0.014321518 0.052046135
0000b0 2a a8 53 bd 2d 60 1c 3d 39 dd b1 bd 08 29 a5 bd
       -0.051674046 0.038177658 -0.08684773 -0.08064467
0000c0 40 1b 20 3d 0a 14 29 3d 2f 98 15 bc d3 1f a2 bc
       0.039088488 0.041278876 -0.009130522 -0.019790566
0000d0 18 e8 c3 3b 39 84 7e 3c 77 81 b4 bd 72 dc 1d 3b
       0.0059785955 0.015534454 -0.08813756 0.0024087694
0000e0 59 3a 91 bd 56 8d 14 3d 7c 4b 32 bd 10 18 d3 3d
       -0.07091207 0.0362676 -0.04352902 0.10307324
0000f0 6c 08 75 3d 22 58 f3 3d 9f 73 fc 3c f7 72 10 bd
       0.059822485 0.118820444 0.030816851 -0.03526589
000100 62 ba 04 bd 1a 44 d4 bc 7e 3a 35 bd ba 44 8c 3c
       -0.03240431 -0.02591138 -0.044245236 0.017122615
000110 5c 9c 81 3d 6e 5c 17 bb c6 81 15 bd 14 4c 29 bd
       0.06328651 -0.0023095864 -0.036500715 -0.04133232
000120 3c 99 63 37 ad 20 c0 3c 8d 97 04 3d 58 65 b7 3c
       1.3565932e-05 0.023453081 0.032371093 0.022387192
000130 a5 94 01 ba ad 3d b9 bc 79 3b 88 3c 88 35 48 bd
       -0.0004943109 -0.022612417 0.016629921 -0.048879176
000140 6b b3 9a bd df 8d 11 bd e9 f6 0f 3c 52 13 cd bc
       -0.075537525 -0.03553569 0.008786895 -0.025033627
000150 92 66 55 bd e8 6f 9b 3c 7c 88 8d bd ec cf 9e 3d
       -0.05209977 0.01897426 -0.06910798 0.07754502
000160 ac 76 f7 bc 88 ce d5 3d cf 76 0b bd 59 54 7a 3d
       -0.030207954 0.10439783 -0.03404885 0.061115596
000170 fb d6 21 3d 20 15 c5 bd 84 12 70 39 50 db 05 bd
       0.039511662 -0.0962317 0.00022895081 -0.032679856
000180 86 8c 96 3c ab b6 4f 3d
       0.018377554 0.050711315
