preUpsampling8.pth (torch, 20225 bytes, 11 tensors)

conv1.weight f4 [2, 1, 7, 7]
000000 00 07 28 bd 00 32 85 bb 84 11 24 3d 60 4e f3 3b
       -0.0410223 -0.0040647984 0.040055767 0.0074251145
000010 1a 66 b7 bd b0 f7 b6 bd ea d0 9b bd 70 88 ba bd
       -0.08955021 -0.089339614 -0.076082066 -0.09108055
000020 48 44 33 3d 00 61 f6 bb b0 47 72 3d dc 86 dd bd
       0.04376629 -0.0075188875 0.059150398 -0.10816738
000030 aa b4 43 bd 9c 10 db bd 82 0d b4 3d c8 f8 8a 3c
       -0.047779717 -0.10696527 0.08791639 0.016964331
000040 10 1c 47 3d e8 2c f1 bd d3 21 92 bd f0 79 2e 3d
       0.048610747 -0.11776143 -0.07135358 0.042596757
000050 e8 48 c4 3c 26 72 be 3d 0c af 0e be e0 50 d9 3d
       0.023960546 0.09299116 -0.13933963 0.10611129
000060 3c fe 5d bd f2 0c 19 bd 04 48 02 3d 87 8c 9e bd
       -0.054197535 -0.03736586 0.03180696 -0.07741647
000070 b6 33 12 be 00 07 2c 3a 08 9f ea bc f8 cb c4 3c
       -0.14277539 0.00065623224 -0.028640285 0.024023041
000080 e6 25 9c 3d c0 3d 55 3d b0 5e b8 bc 06 26 e5 3d
       0.07624416 0.052060843 -0.022506088 0.11188893
000090 82 27 a5 3d 46 39 45 bd 41 a8 0f 3e 30 c8 cd 3d
       0.08064176 -0.048150323 0.14029028 0.10047948
0000a0 5e cc 9a 3d 46 07 fc 3d 2c 28 97 bd 26 e8 dc 3d
       0.07558511 0.12306075 -0.07380709 0.10786466
0000b0 f8 33 fc 3c 3a e9 a6 3d 64 45 73 3d fa a9 e2 3d
       0.0307865 0.08149953 0.059392348 0.11067577
0000c0 0c ca a9 3d ea f0 ce bd c0 fb 9a 3c d6 b7 c9 3d
       0.082904905 -0.101045445 0.018918872 0.09849517
0000d0 ee f0 9d bd 15 6e b6 bd 98 ed 66 bd 32 16 30 bd
       -0.07711969 -0.08907715 -0.05637893 -0.042989917
0000e0 d2 46 e9 3d 1c f7 61 3d 00 83 d1 ba 2c b1 90 bd
       0.11390461 0.055167302 -0.0015984476 -0.07065043
0000f0 c8 5a a0 3d 0e 35 eb 3d 1c d8 85 bd 96 ec aa 3d
       0.07829815 0.11484729 -0.0653536 0.083459064
000100 80 0f 2f 3d e0 98 33 bd 2e ac ff 3d b4 85 03 be
       0.04273939 -0.043846965 0.124840125 -0.12843972
000110 48 dc 3b 3d 36 5b 92 3d 73 f5 fc bd d8 5b 03 3d
       0.045864373 0.07146303 -0.12351503 0.03207001
000120 52 42 dc 3d e5 40 10 be 75 73 e8 bd 3c eb d4 3d
       0.10754837 -0.14087255 -0.11350147 0.1039643
000130 ba 32 8f bd d5 a9 a1 bd 08 63 e8 bc d0 db dc 3c
       -0.06992097 -0.07893721 -0.028367534 0.026960284
000140 e0 42 8c bb 78 a7 c9 bc 45 e1 83 bd 0c 28 e5 bd
       -0.004280433 -0.024615988 -0.06439451 -0.11189279
000150 ea 70 89 bd 70 46 22 3c 30 d5 a8 bc d4 16 d1 bc
       -0.0671099 0.009904489 -0.020609468 -0.02552358
000160 f3 29 11 be 55 7b cc bd e0 ec c3 bb a0 8b e2 bb
       -0.14176159 -0.09984461 -0.0059791654 -0.0069136173
000170 80 7c 28 3b 3c 4a 3c bd c0 58 01 3d 39 7a 02 3e
       0.0025708973 -0.045969233 0.03157878 0.12741937
000180 4a e7 a2 bd 9c d5 04 bd
       -0.07954271 -0.032430276

conv1.bias f4 [2]
000000 3c 7b 42 3d b8 a8 20 3d
       0.047480807 0.039223403

conv2.weight f4 [4, 2, 7, 7]
000000 80 55 e5 3c a4 e1 84 bd 4e b6 b7 3d 88 25 88 3d
       0.027994871 -0.0648835 0.08970319 0.066477835
000010 e2 32 91 3d c0 3d b8 3b 1c de 53 bd e2 34 7d bd
       0.07089783 0.0056225955 -0.051725492 -0.06181801
000020 5d 94 cb bd 98 1f 0f 3c d8 ea 61 3d 20 fe 55 bc
       -0.099404074 0.00873556 0.055155605 -0.013061076
000030 a0 3a 79 bd 00 74 c2 3b f4 66 63 3d 43 5d 5a bd
       -0.060846925 0.0059342384 0.055518106 -0.053311598
000040 da 28 88 3d 78 12 6d 3d 10 52 40 3c c8 4c 6e bc
       0.06648417 0.05787894 0.011738315 -0.014544673
000050 92 1a ac 3d 28 41 81 bd 04 a9 83 bd 84 cb 38 bd
       0.084035054 -0.06311256 -0.064287215 -0.045115963
000060 60 f0 60 3d 70 f9 39 bd 60 64 37 3d 18 01 9d bd
       0.05491674 -0.045403898 0.04477346 -0.07666224
000070 6e 03 97 bd 8d eb c3 bd 52 81 c6 3d c4 d6 38 3d
       -0.07373701 -0.09566412 0.09692635 0.04512669
000080 10 b3 d5 3b 4b 93 be bd b8 4c e9 bc c0 e8 ef bb
       0.00652159 -0.09305438 -0.028478965 -0.007321447
000090 c0 fb 5f 3c 40 93 b5 bd ff 2a 4c bd a8 ba 56 bd
       0.013670862 -0.08865976 -0.04984569 -0.052424103
0000a0 6c 88 6b 3d 48 62 6b bc 90 4d 22 3d e0 91 b3 3d
       0.05750315 -0.014366694 0.03962475 0.08768058
0000b0 0e 38 33 bd f0 4a 0f bc e8 24 57 bc 42 4a 9c 3d
       -0.04375463 -0.008745894 -0.013131358 0.07631351
0000c0 b0 04 00 bc 88 ca 20 3d 00 0e 00 3d 2a fd 44 bd
       -0.007813618 0.03925565 0.03126335 -0.048093
0000d0 02 66 a7 3d 9e ea c9 bd 68 40 f1 bc 2e 46 b0 bd
       0.08173753 -0.09859203 -0.029449657 -0.08607136
0000e0 78 70 81 3d 00 18 8b 3c 72 8c 8e 3d a6 0b 51 bd
       0.0632028 0.016979218 0.069603816 -0.0510365
0000f0 14 4a 3e 3d 1c d8 4d bd a4 62 9d bd 4a e7 a5 3d
       0.046457365 -0.050254926 -0.0768483 0.081007555
000100 5d 73 b0 bd a0 41 20 3c 8c c3 c9 bc 22 1f 2b bd
       -0.08615754 0.009781271 -0.024629377 -0.041777737
000110 00 63 82 3c be 65 9c 3d 14 52 22 3d 96 e1 ad bd
       0.015916348 0.07636593 0.039629057 -0.08490293
000120 53 36 92 bd 54 6d b7 3d 22 88 c0 bd f0 06 e9 bc
       -0.07139268 0.089563996 -0.09400965 -0.02844569
000130 d0 5c e7 3c 48 c3 54 3c ee c7 b3 3d 9c 1e ac 3d
       0.028242499 0.012986012 0.08778368 0.08404276
000140 d8 3f 26 3c c8 cc c0 3d 28 0b fb 3c 13 b6 bb bd
       0.0101470575 0.09414059 0.030644968 -0.09165587
000150 d8 18 57 bd d4 a8 87 3d c8 2c 46 bc 7c fb 8a 3d
       -0.052513927 0.06623998 -0.012095638 0.06786248
000160 c4 40 8c 3d d8 7e e5 bc b9 34 70 bd 1c a9 45 3d
       0.068482906 -0.028014585 -0.05864403 0.04825698
000170 5e f9 bc bd a4 76 b3 3d 08 23 ee bc 70 6b 4f bc
       -0.092272505 0.08762863 -0.029069439 -0.012659892
000180 48 d6 32 3c 60 f3 53 3c 18 12 8a 3c 71 e3 c1 bd
       0.010915346 0.012936443 0.01685433 -0.09467209
000190 5c da 79 3d 20 f4 f4 3b 20 93 bb 3b b0 4e 12 3c
       0.06099926 0.007475391 0.005724326 0.008929893
0001a0 8c ee 8c bd 98 1f 78 bc 50 3d d6 bb 90 ff cb bd
       -0.06881437 -0.015144251 -0.0065380707 -0.09960854
0001b0 5c 37 18 3d a0 86 12 3b 39 4f 23 bd e0 d7 96 3d
       0.03716217 0.0022358075 -0.039870474 0.07365394
0001c0 d6 20 c6 3d 2f ad a4 bd e6 d4 b7 3d 9c cd c8 bc
       0.09674232 -0.08040845 0.08976154 -0.024512105
0001d0 13 85 98 bd 78 5f 43 bd 81 96 c9 bd a8 a3 aa bd
       -0.07447257 -0.047698468 -0.098431595 -0.08331996
0001e0 68 71 7c 3c 30 ad 48 bd 28 7b 96 bc 3e f1 33 bd
       0.0154078975 -0.04899329 -0.018369272 -0.04393124
0001f0 a0 16 76 3c 04 5c 85 bd 26 44 a0 3d a8 80 89 3c
       0.015020043 -0.06511691 0.07825498 0.01678498
000200 f0 d9 91 3c 41 11 b2 bd 4a 1d 02 bd d8 af 68 3d
       0.017804116 -0.08694697 -0.031766213 0.056808323
000210 10 8b 6f 3d 08 ba a5 3d 34 7a af 3d c8 24 42 bc
       0.05848223 0.08092123 0.0856823 -0.01184959
000220 34 1a 7d bd 84 ae 31 3d 70 1d 3e 3c 83 61 ca bd
       -0.061792567 0.04337932 0.011603698 -0.0988188
000230 62 39 1b bd c0 53 a6 3c 9b 09 87 bd 1e b4 c3 bd
       -0.03789652 0.020303607 -0.06593629 -0.09555839
000240 e7 59 41 bd 64 0e 20 3d e0 c1 88 bd 78 90 dd 3c
       -0.04720488 0.039076224 -0.06677604 0.027046427
000250 aa 78 40 bd 8c 5a 9a bc 4c 8c eb bc 18 78 8f bd
       -0.046990074 -0.018842004 -0.028753422 -0.07005328
000260 13 0d b9 bd 78 e2 be 3d ec 1a d9 bc 9c 24 7c bd
       -0.09035697 0.09320539 -0.026502095 -0.06155835
000270 d2 be 65 bd e0 2f 09 3d e0 01 a5 3b 08 1c 30 3d
       -0.056090184 0.033492923 0.005035624 0.042995483
000280 58 6d 56 bc c2 c7 80 3d 74 39 4f 3d 68 3c f2 bc
       -0.013087593 0.06288101 0.0505919 -0.02956982
000290 70 01 df 3c 64 a9 56 3d 96 b6 81 bd 24 c0 9a bc
       0.027222365 0.052407637 -0.06333654 -0.018890448
0002a0 58 62 47 3d c6 dc cd 3d 4b fd a5 bd b0 cc fe 3b
       0.048677772 0.10051875 -0.081049524 0.0077758655
0002b0 00 8a b0 3d 84 ac 8c bd 84 33 b4 bd 3a 19 ca 3d
       0.086200714 -0.06868842 -0.08798888 0.09868093
0002c0 24 60 91 bd d0 70 aa 3c 4c 8f 88 3d 9d d6 8b bd
       -0.070984155 0.020805746 0.06667957 -0.068280436
0002d0 76 51 a6 3d a0 ef d2 bc 84 9e 3d bd 94 d7 21 3d
       0.08121006 -0.025749028 -0.04629375 0.039512232
0002e0 68 ec ad 3d a4 26 91 bd 40 e6 dc 3b 70 21 10 3d
       0.084923565 -0.07087448 0.006741315 0.03518814
0002f0 8f df ce bd 98 57 9e 3d b5 d5 25 bd b4 7b 72 3d
       -0.10101234 0.07731551 -0.04048701 0.059200004
000300 d0 bd 50 bc 18 d1 14 3d 54 8e 4f bd 0a 6a 9d bd
       -0.012740567 0.03633222 -0.050672844 -0.07686241
000310 08 53 d0 3c 98 66 7a 3d 24 b8 8b 3d ba 98 86 bd
       0.025430217 0.061132997 0.068222314 -0.06572099
000320 55 7a a2 bd b0 de df bb 70 a3 0d bc 50 fb 05 bc
       -0.07933489 -0.0068319663 -0.008644924 -0.008177593
000330 72 a2 a6 3d f8 86 6c 3c 6c d4 73 3d 20 80 6b bc
       0.08136453 0.014436476 0.059528753 -0.014373809
000340 50 8a 6c bd d0 1a 8a bb a4 20 4d 3d d0 a9 a5 3d
       -0.057749093 -0.004214622 0.050079957 0.0808903
000350 97 b8 a5 bd dc 00 c7 bd 84 0a b6 bd 88 60 ce bd
       -0.08091848 -0.09716961 -0.088887244 -0.100770056
000360 30 af bf 3d 00 84 e8 bc 5a 6e b6 bd d4 3a 19 3d
       0.09359586 -0.028383255 -0.08907767 0.03740962
000370 6c 07 cb bc 13 95 96 bd fd 58 9a bd e3 4e 82 bd
       -0.024783812 -0.073526524 -0.075365044 -0.06362703
000380 38 ac f1 3c 07 d1 22 bd 68 d8 a5 3c 72 5a bc 3d
       0.029501066 -0.039750125 0.020244792 0.091969386
000390 0e 8b 82 bd 5e 41 94 bd a0 35 54 3b 82 ba be 3d
       -0.06374179 -0.0723903 0.0032380596 0.09312917
0003a0 98 6d 81 3d c8 5a 41 bc 10 a9 26 3d 38 f1 7f bc
       0.063197315 -0.011801429 0.040688574 -0.015621476
0003b0 1c f9 02 bd 80 92 29 bb 88 bb 5c 3d 78 b2 bc bd
       -0.03197585 -0.0025874674 0.05388978 -0.09213728
0003c0 80 a2 c3 3c 00 65 8b bd 34 a6 00 bd 87 a1 ce bd
       0.023881197 -0.068063736 -0.031408504 -0.10089403
0003d0 ea 90 a1 3d 46 b5 3a bd 1c 55 08 3d 70 5a 8b 3b
       0.07888968 -0.045583032 0.03328429 0.0042527243
0003e0 c4 1c 5f bd c8 da 0f bd cf 9f 76 bd a8 0e 8f bd
       -0.054470792 -0.035120755 -0.060211 -0.06985217
0003f0 10 66 9d bd b8 de 4f 3d 38 17 55 3c a4 6a 37 3d
       -0.076854825 0.05074951 0.013006024 0.044779435

conv2.bias f4 [4]
000000 a0 3c 6a bd e0 dd 99 3d 7c f2 9c 3c 38 88 33 3c
       -0.057186723 0.075130224 0.019158594 0.01095777

conv3.weight f4 [8, 4, 7, 7]
000000 38 d4 44 bd c8 b9 fb 3c 70 eb 41 bd 28 95 62 3c
       -0.04805395 0.030728236 -0.04734367 0.013829507
000010 80 a7 33 3a d0 d3 01 3c a4 2e 47 bc 75 5a 41 bd
       0.00068532676 0.007924035 -0.012157116 -0.047205407
000020 b2 a3 8a bc 7c 32 35 bd 4a a4 90 bc 30 85 7f 3c
       -0.01692376 -0.0442376 -0.017656464 0.015595719
000030 07 c6 19 bd ce 1d 1c bd 7e 17 2c 3d 6c 02 83 bd
       -0.03754237 -0.03811436 0.04201459 -0.06396946
000040 a3 a4 29 bd f2 fa b4 bc 10 2c 87 bd 56 15 6c 3d
       -0.041416775 -0.022092316 -0.06600201 0.057637535
000050 d0 46 eb bb d3 4c 84 bd b8 ef f0 3c 45 fb 13 bd
       -0.0071800724 -0.064599656 0.029411182 -0.0361283
000060 14 97 34 bc 28 d5 25 3d 08 57 10 3c f8 cb 84 bd
       -0.011022348 0.040486485 0.008809812 -0.064842165
000070 80 92 d8 3c 62 da 2b 3d 6e a8 cf bc d3 c4 37 bd
       0.026437044 0.041956313 -0.025348868 -0.04486544
000080 d8 4e 43 bd 72 ea ab bc fe 30 6e 3d 30 f5 2c 3d
       -0.047682613 -0.020985816 0.05815219 0.042226017
000090 4b 82 8d bd 32 89 ad bc be ce 6c 3d 88 d9 95 3c
       -0.06909617 -0.021183584 0.057814352 0.018292204
0000a0 60 92 1e bb 55 b0 8c bd 50 07 a9 3c 9c b1 bc bc
       -0.0024196133 -0.0686957 0.02063337 -0.02303391
0000b0 02 35 55 3d 72 1e 27 3d 4c 99 1a 3d ab f0 89 bd
       0.052052505 0.04080052 0.03774385 -0.06735357
0000c0 06 c1 ac bc 18 d0 d1 bc 38 c4 f1 3c cd 2f 89 bd
       -0.021088134 -0.025611922 0.02951251 -0.066985704
0000d0 26 f3 d7 bc b2 22 32 3d b2 62 f0 bc 77 a1 80 bd
       -0.02636106 0.04349012 -0.029343937 -0.06280797
0000e0 20 49 e4 3c a8 04 97 3c ae b4 b5 bc 7c e0 16 bd
       0.0278669 0.018434837 -0.022180881 -0.03683518
0000f0 c6 f0 96 bc c0 8a 9a 3a c0 8e 25 bd 58 57 6f bd
       -0.018425357 0.0011790618 -0.04041934 -0.058432907
000100 9c ec c9 bc c8 63 31 3c 93 27 12 bd 50 d5 8e 3c
       -0.024648957 0.010827012 -0.035682272 0.0174357
000110 d7 3b 07 bd 3e 8f 81 bd 78 ce 0d 3c aa 6e c1 bc
       -0.033016052 -0.063261494 0.008655183 -0.023612339
000120 0a 3a 00 3d bc e2 89 bc 12 fd 31 3d a4 da fa 3c
       0.03130535 -0.016831748 0.043454237 0.030621834
000130 3c a5 af bc da d4 1a 3d 85 04 8e bd d3 28 78 bd
       -0.021441095 0.037800647 -0.06934456 -0.060585808
000140 e4 75 69 bc ed e9 8f 3d 58 c1 bd bc d1 fa 79 bd
       -0.014249299 0.0702704 -0.023163483 -0.061030213
000150 a8 9a 69 3c 68 70 3f bd f0 11 e4 bb c0 1e 4d bc
       0.014258064 -0.04673806 -0.006960146 -0.012519538
000160 13 89 05 bd a0 16 fa 3c b0 ac 23 bd 0e 49 00 3d
       -0.032601427 0.030528367 -0.03995961 0.03131967
000170 10 06 c8 3b 5c 70 5f bd 6c 2d 1a 3d 90 92 e4 bb
       0.0061042383 -0.054550514 0.037640974 -0.0069754794
000180 c3 ec 3b bd 00 e2 f4 3a f0 bb c2 3c 82 eb 1e 3d
       -0.04588009 0.0018683076 0.023771256 0.038798817
000190 ec 38 29 bd 9a c5 8f bd e6 52 19 3d 4e fb 7f bd
       -0.04131405 -0.070201114 0.037432574 -0.062495522
0001a0 da a4 19 bd 00 34 c7 3a 62 1a 62 3d 58 4a ee 3c
       -0.03751073 0.0015197992 0.05520094 0.029088184
0001b0 cc e9 3c bd 55 dd 2b bd 1c c5 12 bd 88 43 2c bc
       -0.046121404 -0.041959126 -0.03583251 -0.010514148
0001c0 00 df 4f 3b 58 ce f5 3c 15 25 32 bd 5c 0f e8 3c
       0.0031718612 0.030005619 -0.043492395 0.028327636
0001d0 f0 04 9e bb a3 69 85 3d 20 b4 28 bb 46 56 5e 3d
       -0.004822366 0.06514289 -0.0025742128 0.054281496
0001e0 48 66 b6 3c ae 81 79 3d 0a f0 2a bd c0 5d 79 3b
       0.022265568 0.060914688 -0.041732825 0.0038050264
0001f0 ca 75 3d 3d b8 54 a9 bc ca ea 2f bd 6f a4 8f bd
       0.04625491 -0.02067028 -0.04294852 -0.07013785
000200 ae 98 25 3d 8e c1 78 bd 31 9f 84 3d fb 2d 80 3d
       0.04042881 -0.060731463 0.06475676 0.0625877
000210 90 4e 26 3d 60 f6 82 3b 4a 17 16 3d 30 96 8a bb
       0.040602267 0.0039966553 0.036643304 -0.0042293295
000220 70 fb 3b bd 03 a4 6c bd 90 33 c8 bb ae ff 38 bd
       -0.045894086 -0.0577736 -0.0061096624 -0.04516571
000230 80 c5 13 ba 4c a0 10 bd e0 04 6f 3b 5f 6c 91 bd
       -0.0005637035 -0.03530912 0.0036471412 -0.07100748
000240 72 8d 13 3d 95 66 2c bd a0 ab f6 bb fc 12 9f bc
       0.036023565 -0.042090017 -0.0075277835 -0.019418232
000250 24 b7 d0 3c 2c af 46 bd 2e 43 ce bc 78 2d 83 bd
       0.025477953 -0.0485069 -0.025178518 -0.06405157
000260 83 0b 8c bd 64 31 2e bc 10 ae ab bb b0 83 f4 3c
       -0.06838133 -0.010631893 -0.0052392557 0.02984795
000270 06 f9 d1 bc 40 88 c7 ba 90 02 b6 bb 56 77 7c 3d
       -0.025631439 -0.0015223101 -0.0055545047 0.061637245
000280 7a 9d 61 bd f0 9c ea 3c 30 23 4b 3d d0 08 57 3c
       -0.055081822 0.028639287 0.049594104 0.01312466
000290 5c a8 6e bd d5 8d 49 bd a4 9c 14 bc cc b6 33 3d
       -0.05826603 -0.049207527 -0.009070549 0.0438755
0002a0 90 59 ec 3c a8 62 df 3c 30 c9 7f 3c 8c 9d 23 3d
       0.0288513 0.027268723 0.015611932 0.03994517
0002b0 78 93 a5 3c d0 53 fd 3c a0 66 0e bb 14 dc f3 3c
       0.02021192 0.030923754 -0.002172865 0.029768027
0002c0 da f6 8b bd c0 95 48 3c 80 88 29 ba f0 b1 1d 3d
       -0.068341926 0.012242734 -0.00064671785 0.038499773
0002d0 3a 10 54 3d 0e e9 47 3d a3 c6 61 bd 6e 56 1f 3d
       0.051773287 0.048806243 -0.055121075 0.038900785
0002e0 8a d5 ec bc 45 3a 3a bd 80 d1 9b 3a a0 4b 59 3d
       -0.028910417 -0.045465726 0.0011887997 0.053050637
0002f0 28 e6 16 3d 38 c7 c5 3c 90 58 30 3d 95 ea 1f bd
       0.036840588 0.024142846 0.04305321 -0.039042074
000300 80 5f 18 ba 65 c4 57 bd 1c 35 15 bd 5e d4 72 3d
       -0.00058125705 -0.05267753 -0.036427602 0.05928456
000310 72 62 47 3d 60 82 0b bb 08 66 2f bd 52 87 4f 3d
       0.04867787 -0.0021287426 -0.042821914 0.05066616
000320 d2 c4 68 3d a0 bc 4b bd e8 2d cb 3c 30 e6 3f 3d
       0.056828327 -0.049740434 0.024802163 0.046850383
000330 9c fa 3f bc 35 33 87 bd 60 3a e4 3c 80 67 40 bd
       -0.011717465 -0.06601564 0.027859867 -0.046973705
000340 ae f5 6a 3d 8c 07 36 bd 28 7c 87 bd c3 90 8c bd
       0.057363205 -0.04444079 -0.06615478 -0.068635486
000350 50 fe cd 3c 00 d0 0f b8 f6 f8 71 3d f2 1f bd bc
       0.02514568 -3.4287572e-05 0.05907532 -0.023086522
000360 25 4b 88 bd ce 93 c0 bc c6 e2 64 3d 52 1e 17 3d
       -0.06654958 -0.023507979 0.05588033 0.03689415
000370 a1 95 8f 3d 3c 10 3c 3d a4 45 aa 3c 88 d9 4f bc
       0.07010961 0.04591392 0.02078516 -0.012686141
000380 40 14 2c 3b c0 f8 60 bd 58 1b 28 3d 48 3e 16 bc
       0.0026257187 -0.054924726 0.041041702 -0.009170122
000390 11 8e 90 3d 3b d0 86 3d 13 9d 62 bd 26 db 8e bd
       0.07058347 0.065826856 -0.05532558 -0.06975393
0003a0 3e ae 1c 3d ab 3b 89 bd 5c d1 e1 3c e4 49 69 bc
       0.038252108 -0.06700834 0.02756565 -0.014238808
0003b0 8a 37 d6 bc 7a da 75 3d ae 37 c0 bc f5 8f 06 bd
       -0.02614953 0.06002281 -0.02346405 -0.032852132
0003c0 46 e6 9e bc e8 a1 74 bd 80 96 e4 3b 06 2f dc bc
       -0.019396912 -0.05972472 0.006975949 -0.026877891
0003d0 80 d3 05 bd 80 26 f9 3c f8 6f 3c bc d6 d0 5f 3d
       -0.032672405 0.030413866 -0.011501305 0.05464252
0003e0 70 9d 81 3b 5c b4 39 bd 65 01 67 bd 00 76 43 bb
       0.0039555356 -0.04533802 -0.056397814 -0.0029824972
0003f0 0f ff 80 3d f8 ca 9d bc 20 c0 91 3b a6 0d 9c bc
       0.062986486 -0.019261822 0.004447952 -0.019049477

conv3.bias f4 [8]
000000 d0 aa 36 3c 72 c0 f3 bc 00 65 0b bb 75 74 7f bd
       0.011149123 -0.029754851 -0.0021269917 -0.06236692
000010 43 b8 73 bd d5 94 5b bd b2 81 1a 3d 1c 29 45 bd
       -0.059501898 -0.053608734 0.037721343 -0.048134908

conv4.weight f4 [4, 8, 7, 7]
000000 88 29 1f bd e2 cf 18 bd 7e 44 a2 bc cc 65 fe bc
       -0.038857967 -0.037307627 -0.01980805 -0.0310544
000010 f8 3c 3b bc 14 cf 2e 3d 74 31 28 3d a0 98 bd ba
       -0.01142811 0.042677954 0.041062787 -0.0014465041
000020 92 67 1d bd 90 51 83 3c f0 bb 4e 3c ca c5 3a bd
       -0.03842885 0.016030103 0.01261805 -0.045598783
000030 e0 c3 34 3c 38 8c 0c bc 44 9e 08 bd b4 20 44 3d
       0.011033028 -0.008578353 -0.03335406 0.04788275
000040 f8 47 99 3b c8 51 b3 3b 04 3d 07 3d fa 1d 2a bd
       0.004677769 0.0054723956 0.033017173 -0.041532494
000050 e6 e4 0d bd 68 f8 c2 bb 73 de ba bc 70 f2 1b bb
       -0.034642123 -0.0059500225 -0.02281115 -0.0023795627
000060 ec dd 06 3d 64 57 89 3c 9e 05 4e 3d 18 cd 87 bb
       0.032926485 0.016765304 0.050298326 -0.004144322
000070 4e 50 43 3d 04 eb af 3c 38 a8 9a 3b ab 0c b3 bc
       0.047684006 0.021474369 0.0047197603 -0.021856626
000080 d4 8e 0c 3d 3a a4 22 bd 60 af e5 bc 74 09 af 3c
       0.0343159 -0.0397074 -0.028037727 0.021366812
000090 a4 06 0a 3d a0 01 23 bd dc d0 02 3c 4a 68 13 3d
       0.03369774 -0.03979647 0.007984366 0.03598813
0000a0 c0 24 59 3a f8 d0 22 3d bc 4e 44 3c 50 61 b0 3c
       0.0008283369 0.03975007 0.011981662 0.021530777
0000b0 40 4f 0c 3c 93 df 4d bd ff 74 38 bd 68 5f 7d bc
       0.008563817 -0.050262045 -0.04503345 -0.015464641
0000c0 78 df e9 3c 48 4a 24 3c 70 7a f0 bb 14 8c 13 3d
       0.028548941 0.010027476 -0.0073388144 0.03602226
0000d0 40 ba c8 3b 8e 86 0c 3d be 62 1d 3d 6a fe be bc
       0.0061257184 0.03430801 0.038424246 -0.023314673
0000e0 50 53 9d bc 40 a8 1c 3c 90 87 72 bc 96 ee 12 3d
       -0.019204766 0.009561598 -0.014802828 0.035872065
0000f0 14 c9 fb 3c 29 63 c1 bc 25 94 2f bd 4c 67 23 3d
       0.03073553 -0.023606854 -0.04286589 0.039893433
000100 dc a7 46 3d b6 bb 98 bc 00 7a 28 3d 1c 2b 4c 3d
       0.048499927 -0.018644195 0.041131973 0.0498458
000110 18 c4 2a bd c6 db 08 bd fc 52 c5 3c f4 70 16 3d
       -0.041690916 -0.033412717 0.024087422 0.036728814
000120 34 f3 89 3c 7a c2 32 3d b9 6f 3e bd 78 3a 23 3c
       0.016839601 0.0436425 -0.046493266 0.0099626705
000130 b8 0b 31 3d b8 43 2e bd 6a c3 f7 bc f8 76 14 3c
       0.043224066 -0.04254505 -0.030244548 0.0090615675
000140 96 35 41 3d 30 2f 31 3b ec 9a 21 bc be 4a 23 3d
       0.047170244 0.0027036183 -0.009863596 0.0398662
000150 44 bb b0 3c 6c c7 09 3c ff e1 1d bd 30 b2 59 bb
       0.02157367 0.008409362 -0.038545605 -0.003321778
000160 b0 08 5f 3c e8 13 45 bd 32 8e 84 bc 75 ef 23 bd
       0.013612911 -0.048114687 -0.016181085 -0.040023286
000170 92 d9 20 3d 32 93 4c 3d cc b3 e7 3c 1c 5d 40 3c
       0.03926999 0.049945064 0.028283976 0.011740949
000180 08 26 e9 bb 7e 44 30 3d 28 02 88 3c a4 7b 25 bd
       -0.0071151294 0.04303407 0.01660259 -0.040401116
000190 41 7f da bc b0 61 cf 3c 14 a0 3b 3d c4 18 cc bc
       -0.026672008 0.025315136 0.04580696 -0.024914153
0001a0 80 97 21 bd 81 6c f7 bc c6 40 34 bd dc cc f8 bc
       -0.039451122 -0.030203106 -0.044007085 -0.030371122
0001b0 e3 73 b0 bc a0 98 ba 3c a0 a8 9e 3a c0 b4 a7 3b
       -0.021539634 0.022777855 0.0012104698 0.0051179826
0001c0 a0 c2 2b bc 24 26 05 bc 55 70 15 bd 44 44 30 3c
       -0.010483414 -0.008126769 -0.03648408 0.010758463
0001d0 3c e5 2a bc 00 af 9a bb 3e 1c ca bc 40 c1 5f 3c
       -0.01043063 -0.0047205687 -0.02467167 0.013656914
0001e0 2c 5e 0a 3d 6f 8a b2 bc 8f 63 2b bd 64 82 8f bc
       0.033781216 -0.021794526 -0.041842993 -0.01751823
0001f0 f2 b5 0b bd a0 9d 22 3d 3c d9 c1 bc b0 77 01 3b
       -0.034109063 0.039701104 -0.023663156 0.0019755177
000200 60 35 cd 3c 3c 45 38 3d 82 a4 06 bd 90 01 20 3c
       0.025049865 0.044987902 -0.03287173 0.0097659975
000210 0c 64 0b bd 1c 11 92 bc 08 fe 3f 3c 00 7e ed bc
       -0.03403096 -0.017830424 0.011718281 -0.028990746
000220 38 03 80 bb b8 56 40 3c 64 14 a6 3c 3c 00 ee bc
       -0.0039066337 0.011739425 0.020273395 -0.029052846
000230 a4 49 05 3d 7e 8a fe bc c6 85 e9 bc 10 db 78 3c
       0.032540932 -0.031071898 -0.028506171 0.015188947
000240 bc d6 2f bd 59 c7 fa bc 1e 44 18 3d 06 95 06 3d
       -0.042929396 -0.030612634 0.037174337 0.032856964
000250 f8 cd 24 3d 38 aa ca 3c 80 2d b2 3c e8 58 30 bc
       0.04023549 0.02473937 0.021750212 -0.010763384
000260 15 f9 45 bd 28 af 96 bb 68 11 55 3c 7c 42 51 bc
       -0.048333246 -0.004598517 0.013004638 -0.012772199
000270 58 0e f3 3c 64 34 00 3c 06 d0 1d 3d d6 fc 40 3d
       0.029669926 0.007824991 0.038528465 0.047116123
000280 c0 09 72 3b c0 0d eb ba de bc 43 3d 74 3e 8f 3c
       0.003693208 -0.0017933175 0.04778754 0.017485835
000290 00 99 21 3c 06 e1 11 bd 90 9e 25 3d 62 c7 1f bd
       0.009863138 -0.03561499 0.04043442 -0.039008506
0002a0 88 74 b6 bb b0 27 06 3b c0 b3 be bc 9c 62 85 3c
       -0.005568091 0.0020470433 -0.02327907 0.016282372
0002b0 94 b3 f5 3c eb 23 2c bd 92 c0 17 3d c8 b2 9a 3b
       0.029992856 -0.04202644 0.037048884 0.0047210194
0002c0 46 9c 23 3d 80 ca d2 ba e6 ea 0f 3d b0 7c db 3c
       0.039943956 -0.0016082078 0.035136126 0.026792854
0002d0 be d7 4d 3d da 9c 35 bd b6 25 0f 3d 54 4a e4 3c
       0.050254576 -0.04433904 0.034948073 0.027867474
0002e0 bc c9 db 3c 20 14 e9 3c b0 10 04 bd 20 71 a5 ba
       0.026829593 0.02845198 -0.032242477 -0.0012622215
0002f0 40 4a 18 ba b8 83 4b 3d c4 3c 72 bc 44 30 88 3c
       -0.0005809404 0.049686164 -0.0147849955 0.016624577
000300 c0 08 2d bd 7d 5d d4 bc 00 5b 7c 3b 25 37 1f bd
       -0.042244673 -0.025923485 0.0038506389 -0.03887095
000310 17 26 10 bd e8 42 7b 3c 64 62 d4 3c 62 7b ef bc
       -0.035192575 0.015335776 0.025925823 -0.029233638
000320 08 98 17 3d 98 57 46 3d ac fd e0 bc e2 b3 2c 3d
       0.037010223 0.04842338 -0.02746471 0.042163737
000330 20 07 7c bc e8 59 13 3c 50 80 3d 3d 28 f9 87 bb
       -0.015382558 0.008993603 0.046264946 -0.004149575
000340 20 02 ff bb 18 1c be 3c 49 e4 1f bd 4e 95 37 bd
       -0.0077822357 0.023206756 -0.03903607 -0.044820122
000350 7c c7 fc bc 8a 7f 05 3d 54 1e e4 3c 36 7e 4e 3d
       -0.03085684 0.032592334 0.027846493 0.050413333
000360 9f da 47 bd 87 90 4a bd 02 60 ac bc c2 86 34 bd
       -0.048792478 -0.04945424 -0.021041874 -0.044073828
000370 e0 84 95 3a c8 87 f9 3c 74 af 07 3d a8 d0 16 3d
       0.0011407398 0.030460253 0.03312631 0.036820084
000380 a6 01 09 3d 70 f9 e2 3c 1c e1 07 3c e4 b0 22 bc
       0.033448838 0.027706832 0.008293416 -0.009929869
000390 b9 07 16 bd 20 59 72 3c 9c d6 cc bc e8 e5 8b bb
       -0.03662846 0.014791757 -0.025004677 -0.0042693503
0003a0 82 c4 4e 3d 62 ee 0c bd 70 52 ff bc d0 dc 94 bb
       0.050480373 -0.034407027 -0.031167239 -0.0045429245
0003b0 c0 18 cd 3b fe 11 92 bc c4 e2 ab 3c 3c 86 d4 bc
       0.006259054 -0.017830845 0.020982154 -0.025942914
0003c0 88 38 0c 3d 98 4a 19 3d 5c 5e dd 3c cd ff 3c bd
       0.0342336 0.037424654 0.027022533 -0.046142388
0003d0 0a 87 47 bd 04 69 de 3c 29 56 02 bd 48 06 8f 3c
       -0.048712768 0.027149685 -0.03182045 0.01745905
0003e0 20 12 37 3d 04 c1 07 bc 40 ad ac 3c 20 a6 f3 ba
       0.04469502 -0.008285765 0.021078706 -0.0018588938
0003f0 68 71 53 3c 89 ad 1b bd 98 06 73 3c c0 d7 d7 bb
       0.012905456 -0.038007293 0.014833115 -0.0065869987

conv4.bias f4 [4]
000000 e3 f3 f2 bc 8c ec ba 3c b0 e9 43 bc 68 b8 a0 3c
       -0.02965731 0.022817872 -0.011957571 0.019619182

conv5.weight f4 [2, 4, 7, 7]
000000 2a 9d 44 bd 00 ea 1e 39 58 c3 4c 3d 78 88 81 bd
       -0.048001446 0.00015155226 0.04999098 -0.063248575
000010 4a de 15 bd 70 3b 68 bc ea 00 24 bd 6a 80 36 3d
       -0.036588944 -0.014174327 -0.040039934 0.04455606
000020 52 a4 5e 3d ca 95 33 bd 56 c5 43 3d 40 c3 7c 3c
       0.054355927 -0.04384402 0.047795616 0.015427411
000030 20 dd 17 3d ac 8e 16 bd e4 13 ab 3c 38 fc 0d bc
       0.037076116 -0.036757156 0.020883508 -0.008666091
000040 0a bd 4f 3d c4 50 bd 3c ee fb 1d bd 3c c7 3b bd
       0.05071739 0.023109801 -0.038570337 -0.0458443
000050 05 cb 48 bd 88 37 4c 3d 60 96 f5 bc 0a 99 94 bc
       -0.04902174 0.049857646 -0.029978931 -0.018139381
000060 1a 54 2e bd 88 74 b7 3c 9c a1 f3 3c 00 20 ee 3b
       -0.042560674 0.022394434 0.029740147 0.0072669983
000070 45 e1 2c bd 20 f4 fb 3b 64 23 b9 3c d6 28 70 3d
       -0.04220702 0.007689014 0.022599883 0.058632694
000080 94 82 c2 3c 60 75 27 bd ae d4 8f bc ea 59 23 3d
       0.023743905 -0.040883422 -0.017557468 0.03988067
000090 58 3a c5 bc dd a0 86 bd 27 4d 88 3d e0 1c da 3c
       -0.024075672 -0.06573651 0.06655341 0.026625097
0000a0 52 89 1c 3d 3a e6 42 bd 4b 2a 8e 3d 60 2c 89 bb
       0.038216896 -0.047582842 0.069416605 -0.004186198
0000b0 20 52 f1 3b 10 dc df 3c 6e 35 7d 3d 6e e3 4e 3d
       0.0073645264 0.027326614 0.061818533 0.050509863
0000c0 43 ce 8a bd 88 50 3b bd c0 32 6e 3c c8 fe 74 bd
       -0.067776226 -0.045731097 0.014538467 -0.05981329
0000d0 80 e2 9f 3a f7 18 83 3d 0a 83 0c bd 4a e5 8b bd
       0.001219824 0.06401246 -0.034304656 -0.06830843
0000e0 09 fa 8f 3d c4 8b d8 3c 8f 93 8f 3d 6e 2b f7 bc
       0.07030112 0.026433833 0.070105664 -0.030172076
0000f0 75 8f 37 bd b0 a7 89 3c da 77 69 3d 70 51 6d bc
       -0.044814546 0.016803592 0.056999065 -0.014484748
000100 3a 53 80 bd d3 2a 7e bd 28 7d 54 bd 7a e7 7c bd
       -0.06265874 -0.06205256 -0.05187717 -0.06174419
000110 42 b1 70 3d ca e2 bf bc f0 a7 77 bc 5a 19 11 bd
       0.058762796 -0.023423571 -0.015115723 -0.035424568
000120 50 75 5a bd ee f4 7a 3d 2c 23 4b 3d 00 c2 16 39
       -0.053334534 0.06126874 0.04959409 0.00014377385
000130 c1 32 7a bd c8 3b 8b bd c0 45 02 bb f0 28 e2 3b
       -0.06108356 -0.06798512 -0.0019878 0.006901853
000140 7e 55 88 bd 30 1d d2 bb 6a c1 3f bd 94 fc d4 3c
       -0.06656931 -0.006412171 -0.046815313 0.025999345
000150 2a 67 1f 3d 78 4d 7f bc 5f 1f 91 3d 70 f7 65 bc
       0.038916744 -0.015582435 0.07086062 -0.0140360445
000160 d8 a1 90 3c 95 9a 5b bd 20 a4 9f bc 00 0a a3 bc
       0.017655298 -0.053614218 -0.01948744 -0.01990223
000170 28 32 a9 3c e4 1c a4 3c 18 04 e2 bc 27 42 8e 3d
       0.0206538 0.020033307 -0.027589843 0.06946211
000180 dc 04 ce bc 1e 0d 6a 3d 00 88 5b b8 78 87 0d 3d
       -0.025148802 0.057141416 -5.234033e-05 0.03455302
000190 70 d3 a6 bb 25 4e 29 bd ae 6a 9a bc 3e d3 23 bd
       -0.0050911233 -0.04133429 -0.018849697 -0.039996378
0001a0 6c 4f 09 bd 35 59 8b bd 40 0e 1f 3d e9 c0 84 3d
       -0.03352301 -0.06804124 0.03883195 0.06482107
0001b0 c4 45 c1 3c 26 6b 12 3d 90 10 e7 3b 53 b8 88 3d
       0.023592837 0.035746716 0.007051535 0.06675782
0001c0 c0 ea 1d 3c 68 ad 48 3d cc 92 3a 3d 4e 6c 70 3d
       0.009638488 0.048993498 0.045550153 0.058697037
0001d0 d3 56 78 bd be f1 34 bd 79 86 8f 3d 03 46 38 bd
       -0.060629677 -0.044175856 0.070080705 -0.044988643
0001e0 f0 1b 16 3d d0 c3 a4 3c 68 23 c3 3c e9 08 8b 3d
       0.036647737 0.020112902 0.023820594 0.06788809
0001f0 bc 28 3d bd c8 93 23 bc a4 2c 24 bc 5d 66 88 bd
       -0.046181425 -0.009983964 -0.010020409 -0.06660149
000200 50 55 65 3c 36 57 65 3d 9a c7 7b bd bc 03 18 3d
       0.013997391 0.055991374 -0.06146965 0.037112936
000210 00 c9 e2 3b ca b7 2b bd 51 b7 91 3d 68 90 55 bd
       0.0069209337 -0.04192332 0.07115043 -0.05213967
000220 74 e2 c1 3c aa c5 8c bc 5c 5f 18 3d e0 d5 a5 3c
       0.023667552 -0.017184097 0.037200317 0.020243585
000230 88 1e 5a bc e5 e6 2c bd 9c 05 c7 bc b0 ab 17 bd
       -0.013312943 -0.042212386 -0.024294667 -0.03702897
000240 60 14 a2 3c 35 9f 81 3d e4 49 83 bd b0 a6 8e bb
       0.019785106 0.063291945 -0.06410578 -0.004353367
000250 be d6 5f bd 8e 78 15 3d 3d 7c 87 bd 1c 03 74 bc
       -0.054648153 0.036491923 -0.066154934 -0.014893319
000260 50 62 f2 3c 10 05 b5 3b 71 2c 7a bd 48 84 39 bc
       0.029587895 0.005524285 -0.06107754 -0.011323042
000270 00 d6 70 bb a5 90 0e bd 7f 02 8b 3d 6f 32 8a 3d
       -0.0036748648 -0.034805913 0.067875855 0.06747901
000280 40 72 58 3d ea 07 a8 bc a4 dc d7 3c d6 cd 1c 3d
       0.052843332 -0.020511586 0.026350327 0.038282238
000290 f8 51 61 bc 8b e4 81 3d 08 8e 49 3d 33 e8 00 bd
       -0.013752453 0.06342419 0.049207717 -0.031471442
0002a0 7c 62 41 bd 0a 3e 1f bd 38 10 1b bc 86 01 fe bc
       -0.047213063 -0.038877524 -0.009464316 -0.031006586
0002b0 38 9a 7d 3c bc 39 a9 3c b0 96 9a bb b2 bd 77 3d
       0.015478663 0.020657413 -0.0047176704 0.060483642
0002c0 2c 57 70 bd ce 03 77 3d 46 53 a7 bc 8a 2b af bc
       -0.058676884 0.060306363 -0.02042545 -0.021383066
0002d0 20 d1 2a 3d d6 b0 6e 3d 08 59 53 bd 52 ee 60 3d
       0.041703343 0.058274113 -0.05159858 0.05491478
0002e0 52 6a 37 3d c3 e7 91 3d 06 af 6e 3d 20 1b 02 bb
       0.04477913 0.07124283 0.058272384 -0.0019852594
0002f0 18 c3 6f bd 45 2b 22 bd 25 e7 8a bd bc 70 33 3d
       -0.058535665 -0.039592046 -0.067823686 0.043808684
000300 a6 3d 47 3d 28 ce 6d bd 78 d5 6e bd 52 62 43 3d
       0.048642777 -0.058057934 -0.05830905 0.047701187
000310 1c b0 05 3d 6f 72 91 3d 8a f6 c6 bc f5 c3 42 bd
       0.032638654 0.071019046 -0.02428748 -0.04755016
000320 48 4f 6c bd f2 93 8c bc 95 f7 6c bd 4e 67 a0 bc
       -0.057692796 -0.01716039 -0.0578533 -0.01958051
000330 fe aa 05 3d 60 13 4e bb 48 b3 77 bd 30 87 31 3c
       0.032633774 -0.0031444654 -0.06047371 0.010835454
000340 88 b2 63 3c 93 eb 68 bd 7a 37 41 bd ee c5 68 3d
       0.013897546 -0.056865286 -0.047172047 0.056829385
000350 60 9b 64 3c c0 0c 89 bd 28 f7 7a 3c 3e 0a 32 3d
       0.01395306 -0.06691885 0.015317716 0.0434668
000360 96 47 49 3d fe 13 49 bd 57 f4 87 bd 60 52 08 3d
       0.049140535 -0.04909133 -0.06638401 0.033281684
000370 30 f1 8f bb 7c 47 f2 bc 40 00 a9 3a 90 7d 3a 3d
       -0.0043927655 -0.029575102 0.0012893751 0.045529902
000380 00 ba 9d bb 80 7e 98 ba 5c d7 36 bc 09 e4 89 3d
       -0.0048134327 -0.001163438 -0.011159744 0.067329474
000390 d4 e2 70 bc 10 cd 1d bd e4 6d a8 3c 90 3f 24 3c
       -0.014702518 -0.03852564 0.020560212 0.01002492
0003a0 cf 52 87 3d 0a e4 47 bd 22 c7 3d 3d b0 1d b4 3c
       0.06607591 -0.04880146 0.046332486 0.021986812
0003b0 32 a8 7a 3d e8 8f 84 3c a8 28 99 3c c0 47 59 bd
       0.06119556 0.016181901 0.018696144 -0.05304694
0003c0 d8 bb 35 bd 12 b4 71 3d 1a b6 19 3d 51 4f 6c bd
       -0.044368595 0.05900962 0.03752718 -0.05769283
0003d0 d0 75 8b bb 96 bd 8d bd e2 07 78 3d b8 7e fd bc
       -0.0042559877 -0.06920926 0.060554393 -0.030944213
0003e0 62 11 92 bd 00 80 8c 39 d6 cf 15 3d 8c 6d 86 bd
       -0.07132222 0.00026798248 0.03657516 -0.06563863
0003f0 d4 c2 0a 3d 08 51 73 bd b3 71 53 bd 1c c4 52 bc
       0.03387721 -0.05940345 -0.051622104 -0.012864139

conv5.bias f4 [2]
000000 17 c9 02 bd 83 6f 32 bd
       -0.031930055 -0.043563377

conv6.weight f4 [1, 2, 7, 7]
000000 0e 0f 95 3d 8c bb 7b 3d aa d3 bb bd 8c 63 aa 3d
       0.07278262 0.061458156 -0.09171231 0.08319768
000010 b0 dd 90 bd 3b ce c7 bd 40 96 1f bc 00 28 7f 3d
       -0.070735335 -0.09756132 -0.009740412 0.062294006
000020 00 ce e3 bb a4 15 a9 bd 1c 7c ca bd 98 3a 9d 3d
       -0.0069520473 -0.08256081 -0.09886953 0.076771915
000030 f0 9e 4b 3d 80 c7 3b bc a6 4b 91 3d 90 fc 43 bc
       0.04971212 -0.011461139 0.07094507 -0.011962071
000040 e0 d5 62 3b a0 62 82 bd dc 2c 89 bd 48 eb f7 bc
       0.0034612343 -0.063664675 -0.06698009 -0.030263558
000050 00 91 db bb 68 19 6c 3c 38 d4 8c bc 04 db c0 3d
       -0.006700635 0.014410354 -0.017191038 0.09416774
000060 70 5c bc 3b 47 46 32 bd 2c 78 7e 3d e0 a7 b9 bd
       0.005748324 -0.043524053 0.062126324 -0.09065223
000070 02 e7 72 bd d5 cd 2f bd fe 00 8c 3d e0 ee 91 bc
       -0.059302337 -0.042920906 0.06836127 -0.0178141
000080 d0 09 77 bd 82 73 b5 3d 28 76 c7 3d cd 22 c3 bd
       -0.060312092 0.08859922 0.097393334 -0.09528122
000090 fc e9 49 3d 72 63 af 3d c4 e9 d1 bc 40 c6 70 3d
       0.04929541 0.085638896 -0.025624163 0.058782816
0000a0 80 c7 d0 3a 00 ba 56 3a 40 e5 b6 3b c5 d1 bf bd
       0.0015928596 0.00081911683 0.005581528 -0.09366182
0000b0 12 a9 c7 3d c0 17 a6 3c e8 d5 13 bd ee 05 95 3d
       0.097490445 0.020274997 -0.03609267 0.072765216
0000c0 58 83 b4 3d 2e 5c 58 bd 4a 9f 54 bd 68 e0 58 3c
       0.08814114 -0.052822284 -0.051909722 0.013237096
0000d0 94 5f 18 3d 54 f8 4a bd 10 18 11 bc b3 8f 5d bd
       0.037200525 -0.04955323 -0.008855835 -0.05409212
0000e0 ad 0e 9b bd d0 88 e0 bc 4c 2d c9 bc 7b 04 6d bd
       -0.075711586 -0.027408987 -0.024557732 -0.0578656
0000f0 c4 40 52 3d a0 6b f0 3c b8 80 84 3c cf 74 90 bd
       0.051331297 0.029348195 0.01617466 -0.070535295
000100 d0 30 c2 bb 02 8a b1 bd 3c c5 f9 bc 94 1e 00 bd
       -0.005926229 -0.08668901 -0.030489556 -0.03127916
000110 90 ba 83 bd 2e a5 a2 bd 6b e9 90 bd 9c ad c3 3d
       -0.06432068 -0.07941662 -0.07075771 0.09554598
000120 94 0a 88 3c 70 aa cf 3c 50 48 36 3c eb 10 c0 bd
       0.016606607 0.025349826 0.011125639 -0.09378227
000130 47 92 c3 bd f8 2b db bc db 02 8d bd 28 39 93 3d
       -0.095493846 -0.026754364 -0.0688531 0.07188636
000140 2c ff 69 3d 14 3e c1 3d 62 55 00 bd 0c a6 d6 bc
       0.057128116 0.094356686 -0.031331427 -0.026202224
000150 e2 c4 a0 3d 0a 2e 41 bd 59 35 29 bd 90 98 b4 3b
       0.078500524 -0.047163047 -0.041310642 0.005511351
000160 58 58 74 bd fc 09 5c 3d b0 bf 81 bc 03 26 2d bd
       -0.059654564 0.05372046 -0.015838474 -0.04227258
000170 91 db 37 bd 00 41 f4 39 64 da c1 bd d6 41 8c bd
       -0.04488713 0.00046587735 -0.09465483 -0.06848495
000180 9e fb a6 3d 0e 5e 8c bd
       0.08153461 -0.06853877
