preUpsampling2.pth (torch, 2463 bytes, 3 tensors)

conv1.weight f4 [2, 1, 7, 7]
000000 f2 1f bb 3d 68 bd 34 3c 2f 6a c6 3c 48 22 4b be
       0.091369525 0.011031486 0.024220554 -0.19837296
000010 4b 3a ef 3d ef ec af 3d 89 fc 9b bd b2 e5 84 3d
       0.116810404 0.08590113 -0.07616527 0.064891234
000020 66 83 0a 3c 02 93 bf 3e f8 eb 45 3d 7a b2 cd bd
       0.008454179 0.37416846 0.04832074 -0.10043807
000030 cb 48 43 bd 6d 56 ce 3d 79 ee 98 3d 96 37 b9 3d
       -0.047676843 0.10075078 0.0746736 0.09043805
000040 86 f0 fb 3d 58 7f 3e 3e d8 3f 8c 3b c1 ef 17 be
       0.123017356 0.18603265 0.0042800717 -0.14837553
000050 df af 52 bd 5a 5b 80 3d 0b c1 19 be ff 73 40 be
       -0.051437255 0.06267424 -0.15015046 -0.18794249
000060 88 11 d3 bd 99 25 b8 be 6a e9 d6 3c ac c8 07 3e
       -0.10306078 -0.35966185 0.026234347 0.13260144
000070 b8 e5 11 3d 99 e4 b4 bd d4 05 53 3e 44 3e a6 be
       0.035619467 -0.08832664 0.20607692 -0.3246938
000080 46 4b aa bb 1d 0e 31 bd ea 81 4e bd fb 6a 38 3d
       -0.0051969616 -0.04322635 -0.050416864 0.0450239
000090 a5 e5 22 3e 5e f2 18 3d 9f 96 e1 3d 77 fe 18 bd
       0.15907915 0.037340514 0.11015057 -0.03735205
0000a0 45 a1 06 3e bf 62 a0 3b 02 25 95 3c ce 37 1c bd
       0.13147457 0.004894584 0.018206123 -0.038139157
0000b0 d7 8b 5b 3d 37 23 62 bc 44 bc 65 3d 37 63 ca bc
       0.05360016 -0.013802341 0.056087747 -0.024705512
0000c0 3a 8d 6d 3d 7c 9f 3d 3b 86 78 6f 3d a8 e5 3c bd
       0.057996012 0.0028934171 0.05846455 -0.046117455
0000d0 56 a5 b4 3c 9f dc 62 3d 79 52 1e 3d a0 e2 19 bd
       0.022051495 0.055386182 0.03865287 -0.037569642
0000e0 57 a1 7f 3d 3a c0 9b bc 9b d0 6e 3d e7 76 09 be
       0.062409725 -0.01901256 0.05830441 -0.13424264
0000f0 56 ca 22 bd bf 57 2a bd e5 c7 f0 3c 79 6d fc 3d
       -0.039743744 -0.041587587 0.029392192 0.12325568
000100 58 80 be 3d c3 e8 34 3e 8a 6c 6a 3e b9 b6 dd 3d
       0.093018234 0.17666917 0.22892967 0.10825867
000110 cd 8f ac bd d0 42 b3 3d 31 79 bf 3d 00 f8 d8 3d
       -0.08425865 0.08752978 0.09349287 0.10594177
000120 d4 fb 04 bd dc 38 39 3d 33 4c 16 be 1e 0e ed 3c
       -0.032466725 0.04522024 -0.14677505 0.028937396
000130 54 8f 26 bd 6b a5 b3 3d b2 79 cd bd 73 15 9e bd
       -0.040664032 0.08771785 -0.10032977 -0.07718935
000140 e7 37 d5 3e d5 d9 09 3b 2f 9a 0d 3e 75 dd ff bd
       0.41644213 0.002103438 0.13828348 -0.124934115
000150 6c fe 91 3d c6 61 18 bd cf 3d 17 bd 86 00 a2 3e
       0.07128605 -0.03720262 -0.03692418 0.31641024
000160 74 f1 4d bd e6 31 21 bd 84 11 b3 3d d3 0a 0f 3d
       -0.050279096 -0.039354227 0.08743575 0.034922432
000170 5f 94 df 3c ef 8f 04 bd e7 9a ea 3a f4 54 70 3d
       0.027292429 -0.03236383 0.0017898948 0.058674768
000180 1d 0d 97 3d 7c 1b 81 bd
       0.07375548 -0.0630407

conv1.bias f4 [2]
000000 de c9 b2 3e 6e 92 a2 3d
       0.34919637 0.079380855

conv2.weight f4 [1, 2, 7, 7]
000000 d2 ad b4 3c 36 1c 38 bd 10 88 82 3c 9d 14 fe bb
       0.02205554 -0.04494878 0.01593402 -0.007753922
000010 b2 f3 eb bb 82 81 ed bc a8 7c a4 3b 47 18 4b 3b
       -0.0072006816 -0.028992418 0.005019743 0.0030989812
000020 c0 85 92 3d 2a b8 4f bd 99 b3 4a 3d 8e ba 97 bc
       0.07154417 -0.050712742 0.049487684 -0.018521573
000030 99 36 d3 3d 82 e6 2b bc 06 52 c3 bb 62 ef 36 bd
       0.10313148 -0.010491969 -0.0059607057 -0.044661887
000040 d5 f1 02 bd cc 30 8e be e6 fb ed 3d 0c 65 73 bd
       -0.03196891 -0.27771604 0.116203114 -0.059422538
000050 36 f5 a6 bb 44 f1 2a 3e 52 fe 49 bc ed ba 90 be
       -0.0050951494 0.16693598 -0.012328701 -0.28267613
000060 53 78 b9 bd dc 69 0d be 63 a0 ad bd 67 3b 17 3d
       -0.09056153 -0.13809913 -0.08477857 0.036921885
000070 1b 19 22 3c b4 67 12 be 4a 7b 7e bd 70 d1 ef 3d
       0.009893681 -0.14297372 -0.062129296 0.11709869
000080 cd d5 05 3d b9 47 a8 3c 5b ac 16 3c 3a 51 40 3d
       0.0326746 0.020542013 0.009196366 0.046952464
000090 09 6f f6 bc 91 dd d2 bd 53 bd 8c 3c ef db 52 3e
       -0.030082243 -0.10296167 0.01718012 0.2059171
0000a0 ab 32 6e bd a3 c2 e2 bc d0 ad c6 bd 4c 17 d5 3d
       -0.05815379 -0.0276807 -0.09701121 0.10404834
0000b0 70 66 df 3d ee 2a f7 bd d7 9d 99 bc 1e ab 76 3b
       0.1090821 -0.12068735 -0.018752022 0.0037638615
0000c0 0f aa e9 3c f5 11 6b bd b9 4e 6b 3d 68 1d aa 3c
       0.028523473 -0.057390172 0.057448123 0.020765975
0000d0 d5 41 98 bd ac da 90 bc 9a 65 07 bc ea a2 1e bc
       -0.074344315 -0.017682396 -0.00826397 -0.009682396
0000e0 b1 54 19 3d ed 4c b4 bc b3 c4 d2 bc dd 32 8b 3e
       0.037434284 -0.022009337 -0.02572856 0.27187243
0000f0 fd b4 38 bd e5 98 0e bd 47 ab c8 3a 6a 71 16 be
       -0.04509448 -0.03481378 0.0015309834 -0.14691702
000100 d9 6c e0 3d 09 0d e3 3d ac b2 ce 3e e3 af 1f bc
       0.10958261 0.11086471 0.4037069 -0.0097465245
000110 5e 62 a7 bd c1 97 28 3d 1a c5 28 bd a7 16 15 3d
       -0.08173059 0.04116035 -0.041203596 0.036398556
000120 a2 18 d7 bd 55 b0 8f 3c 6b 04 fa bb 90 0a b0 3d
       -0.10502745 0.017540136 -0.007629921 0.08595765
000130 a1 fe f9 3c ce 24 c0 3d 46 27 f2 bc 42 8c bc 3d
       0.030516924 0.0938202 -0.029559743 0.092064396
000140 38 d5 2a 3e e9 27 11 3e 7f 29 14 3d 93 76 a1 3c
       0.16682899 0.14175381 0.036172386 0.01970986
000150 72 ee e2 3c 4d 82 70 bd 3d dd f5 bc 9f e2 04 be
       0.02770159 -0.058718015 -0.030012721 -0.12977074
000160 22 66 10 bb 1f 2e 6f bd 7a 87 75 bc cf c3 26 bd
       -0.0022033532 -0.058393594 -0.014985913 -0.04071408
000170 ab 78 f9 3c 5e f5 6b 3d c2 ad f5 3b 8e 29 3e bd
       0.030453047 0.057607047 0.00749752 -0.04642635
000180 b1 7f 0b 3d 22 e1 20 bc
       0.034057323 -0.009819301
